excs/exc13/cfar10_model_tflite.tflite (tflite, 215076 bytes, 12 tensors)

arith.constant f4 [32]
0.14499274 -0.16537282 0.16286792 -0.084623516 -0.131789 -0.12459422 -0.062139124 0.35625914
-0.096204706 -0.42336148 0.0641051 0.2008727 -0.013601182 0.06601954 0.8448386 0.17026454
0.6195064 -0.20522167 0.6903177 -0.09572184 0.45728695 0.3145187 0.85777336 0.25559974
0.4674027 -0.13136436 -0.12839203 -0.059278805 0.4908469 -0.015184057 0.23379542 0.015266282
00000000: fa78 143e 7e57 29be d9c6 263e 184f adbd
00000010: b2f3 06be 412b ffbd 9885 7ebd 9967 b63e
00000020: f906 c5bd d6c2 d8be 8949 833d 93b1 4d3e
00000030: 7ed7 5ebc 4135 873d 5847 583f d459 2e3e
00000040: f997 1e3f a125 52be a9b8 303f d009 c4bd
00000050: 8421 ea3e 9808 a13e 0997 5b3f f8dd 823e
00000060: 684f ef3e 6184 06be 3379 03be 55ce 72bd
00000070: 4950 fb3e 8dc6 78bc 1168 6f3e 6d1f 7a3c

arith.constant1 f4 [64]
-0.13504495 0.559589 -0.29109368 -0.22125846 0.08722918 0.083266124 -0.0034796672 0.29235995
0.0015703982 0.3081178 0.2393684 -0.05808865 0.081376724 -0.11523637 -0.38944826 -0.22685279
-0.0677113 -0.23079136 0.03411951 -0.060585905 0.078673705 0.17246468 0.07866942 -0.15648176
0.08518948 -0.32932863 0.3150129 -0.2566524 0.17503154 -0.015256921 0.21084759 0.30826682
-0.121859945 0.10373206 -0.17551808 0.29922223 -0.29348013 -0.35738733 0.21213982 5.6070043e-05
-0.11013985 0.07451351 0.04009376 -0.07393908 -0.055444837 0.09307623 -0.05369879 -0.057698
-0.043154985 0.052580796 0.0038980755 -0.4366345 0.0031799083 0.21075678 -0.08481785 0.33891144
0.24039672 -0.0020125874 0.04363876 -0.09897576 0.019328905 -0.09369269 -0.011479722 0.17544656
00000000: 3949 0abe 3a41 0f3f 3b0a 95be 9491 62be
00000010: 36a5 b23d 6e87 aa3d 210b 64bb 34b0 953e
00000020: d2d5 cd3a 9ec1 9d3e fd1c 753e 5dee 6dbd
00000030: d7a8 a63d 0c01 ecbd c365 c7be 194c 68be
00000040: 39ac 8abd 9254 6cbe e6c0 0b3d ed28 78bd
00000050: ae1f a13d 959a 303e 6f1d a13d c13c 20be
00000060: d277 ae3d c39d a8be 5f49 a13e f267 83be
00000070: 783b 333e 2af8 79bc 6ee8 573e 26d5 9d3e
00000080: b591 f9bd 7971 d43d 03bb 33be a833 993e
00000090: 0743 96be 79fb b6be 2e3b 593e c02c 6b38
000000a0: 0091 e1bd 8a9a 983d 5b39 243d 5f6d 97bd
000000b0: 201a 63bd c09e be3d 43f3 5bbd bd54 6cbd
000000c0: 48c3 30bd f65e 573d db76 7f3b 8f8e dfbe
000000d0: 0266 503b a0d0 573e fbb4 adbd cd85 ad3e
000000e0: 8f2a 763e 9de5 03bb 8ebe 323d ceb3 cabd
000000f0: a757 9e3c f4e1 bfbd 7215 3cbc 43a8 333e

arith.constant2 f4 [32, 2, 2, 64]
-0.258542 -0.7621534 0.17155677 -0.011904449 -0.27217203 -0.07165298 0.44236958 0.038035847
0.11641217 -0.7110136 -0.3304059 -0.0823828 0.38884437 0.07508977 -0.026278414 0.29256552
0.10639978 -0.234748 -0.02473968 -0.09635108 -0.16477779 -0.16266067 -0.16867691 0.015743105
0.04341595 0.111691974 -0.5875034 0.09300649 -0.1343596 0.063147224 -0.31423372 -0.4772645
-0.0065802126 -0.21733522 0.20805044 0.11002803 -0.031274818 -0.09074112 0.1266444 -0.1494016
-0.07549437 -0.33185905 0.06847212 -0.0052849795 0.097403154 -0.20260768 0.16591156 -0.1144539
-0.03898644 0.19438586 0.19388394 -0.2709878 0.11372389 -0.2354132 0.09377806 -0.8010721
-0.026932701 -0.112609096 -0.14318927 0.018966652 -0.21539548 -0.16126296 -0.14310355 -0.054411374
-0.10360517 -0.6224125 -0.16613938 0.10397766 0.13141802 -0.13830526 0.076277204 -0.28075677
0.10217193 -0.38296893 -0.0021221698 -0.032405723 0.25177574 -0.222502 0.038094074 0.30022427
-0.03573218 -0.046132028 -0.11253316 -0.014581128 0.18778092 0.21637413 -0.2727418 -0.06540213
-0.16919483 0.2218239 -0.108281896 0.0018843092 0.17022693 -0.096314654 -0.48566318 -0.03937766
0.1665074 -0.73699087 0.14373156 -0.09191075 0.1872826 -0.051623277 0.07666708 0.040003236
0.14055178 -0.3457522 -0.43075535 0.122698456 0.00925728 -0.021902345 0.06454884 -0.036160946
0.068606734 -0.011863103 0.4016828 -0.40952626 0.2624212 0.29171118 0.10762109 -0.8123383
-0.35365543 0.07912049 -0.14804494 0.11125562 -0.048379023 -0.12851727 0.041065004 -0.20209052
0.027950462 -0.46489 -0.19693066 0.384748 -0.39931154 -0.39767364 -0.121145934 0.03469879
0.053433318 -0.18184406 -0.7758243 0.123078 -0.24455899 0.07812127 -0.12604411 -0.19988781
-0.10395698 0.010723463 -0.12151355 0.09892855 -0.5734144 -0.67196363 0.109367736 0.083515294
-0.5582668 -0.11739695 0.035769302 0.099831 0.06200853 0.18905994 0.1331056 0.027621228
-0.01648153 0.17898364 0.07669756 0.2632859 -0.23485824 0.11814891 -0.048738204 0.12584236
0.15861337 0.36008525 -0.077019274 -0.055888947 -0.0070931595 -0.17887923 0.119369194 0.009544828
0.016063008 0.017966596 -0.0789281 -0.054795705 -0.32461202 -0.5119604 0.00013535043 0.3993343
0.027464291 -0.21482618 0.21194796 -0.06053605 -0.29761264 -0.122889645 0.34468597 -0.31640333
-0.06417957 -0.56334245 -0.33963934 0.16475607 0.10804427 -0.38157672 -0.20213415 -0.14309539
0.02693142 0.1548417 -0.52372646 0.09778277 -0.4355366 0.13752997 -0.2047448 -0.27052897
0.09063657 -0.37629414 -0.017367039 -0.037307568 -0.25196612 0.008879433 -0.19802907 0.12505426
-0.69532335 0.016095461 -0.29666412 -0.048324395 0.52702147 -0.20480527 0.47561795 -0.37591892
0.027480586 0.15275048 -0.1120152 -0.31976628 -0.13785204 0.12982568 0.0031285607 0.33494273
0.11300553 0.07577777 -0.40161592 0.08918959 0.03475487 -0.24545106 -0.14060067 0.058813266
0.004275774 -0.15851721 0.16976228 -0.39373183 -0.15636441 -0.2700286 0.062074464 0.59920985
-0.23020647 0.05778138 -0.118946835 0.031701818 -0.0026265613 -0.31029168 0.23185769 0.09576753
00000000: 9e5f 84be 7c1c 43bf 94ac 2f3e e10a 43bc
00000010: 225a 8bbe ccbe 92bd 447e e23e 7acb 1b3d
00000020: 8169 ee3d fd04 36bf f62a a9be 50b8 a8bd
00000030: 9c16 c73e aac8 993d d445 d7bc 26cb 953e
00000040: 21e8 d93d c861 70be dfaa cabc b753 c5bd
00000050: 82bb 28be 8590 26be a4b9 2cbe aff7 803c
00000060: ecd4 313d c3be e43d 9f66 16bf 307a be3d
00000070: 9095 09be 5553 813d 3ee3 a0be 035c f4be
00000080: d39e d7bb 208d 5ebe 2d0b 553e 6056 e13d
00000090: 061a 00bd 7bd6 b9bd 12af 013e bcfc 18be
000000a0: cb9c 9abd 6ee9 a9be 1c3b 8c3d 9f2d adbb
000000b0: 4e7b c73d 6378 4fbe b8e4 293e ce66 eabd
000000c0: 3fb0 1fbd 160d 473e 8389 463e eabe 8abe
000000d0: 12e8 e83d 2810 71be b60e c03d 1013 4dbf
000000e0: f8a1 dcbc 999f e6bd 35a0 12be f45f 9b3c
000000f0: a290 5cbe 1e22 25be bd89 12be 76de 5ebd
00000100: f32e d4bd 6d56 1fbf 7120 2abe 3df2 d43d
00000110: 7292 063e e59f 0dbe 3937 9c3d 5abf 8fbe
00000120: 843f d13d 8114 c4be 1a14 0bbb ddbb 04bd
00000130: c0e8 803e 90d7 63be 8808 1c3d ffb6 993e
00000140: e85b 12bd f0f4 3cbd c977 e6bd afe5 6ebc
00000150: a449 403e 2e91 5d3e d0a4 8bbe 8df1 85bd
00000160: 6941 2dbe ce25 633e e6c2 ddbd edfa f63a
00000170: f84f 2e3e 9e40 c5bd d8a8 f8be 784a 21bd
00000180: ea80 2a3e 6fab 3cbf 5e2e 133e b43b bcbd
00000190: 03c7 3f3e ee72 53bd a103 9d3d 6fda 233d
000001a0: ceec 0f3e 6f06 b1be f78b dcbe 5449 fb3d
000001b0: d9ab 173c 8c6c b3bc 2f32 843d 801d 14bd
000001c0: b081 8c3d 765d 42bc 5ea9 cd3e 6dad d1be
000001d0: 125c 863e 2b5b 953e 7268 dc3d 67f5 4fbf
000001e0: 5312 b5be ec09 a23d 1899 17be fdd9 e33d
000001f0: 1529 46bd 089a 03be c733 283d d1f0 4ebe
00000200: 5ef8 e43c 1006 eebe 31a8 49be b1fd c43e
00000210: 9072 ccbe e19b cbbe 5c1b f8bd 5220 0e3d
00000220: e5dc 5a3d 5435 3abe 6c9c 46bf 5210 fc3d
00000230: ac6d 7abe 0bfe 9f3d b511 01be 64af 4cbe
00000240: 66e7 d4bd 77b1 2f3c 19dc f8bd 0d9b ca3d
00000250: 49cb 12bf cf05 2cbf 31fc df3d 110a ab3d
00000260: 93ea 0ebf d06d f0bd d582 123d 3274 cc3d
00000270: a8fc 7d3d ee98 413e d64c 083e ea45 e23c
00000280: 4604 87bc 7d47 373e 9c13 9d3d 69cd 863e
00000290: ae7e 70be 0ef8 f13d b6a1 47bd d2dc 003e
000002a0: 8b6b 223e 185d b83e 48bc 9dbd cfeb 64bd
000002b0: bc6d e8bb 1e2c 37be d677 f43d e961 1c3c
000002c0: 9296 833c af2e 933c 0ea5 a1bd 7671 60bd
000002d0: 8c33 a6be d60f 03bf dbec 0d39 8c75 cc3e
000002e0: cbfc e03c 65fb 5bbe e308 593e a6f4 77bd
000002f0: af60 98be 91ad fbbd ae7a b03e 9eff a1be
00000300: 9470 83bd 3637 10bf 35e5 adbe d1b5 283e
00000310: 5046 dd3d 065e c3be 41fc 4ebe 9987 12be
00000320: 489f dc3c d38e 1e3e f012 06bf 5542 c83d
00000330: a7fe debe a8d4 0c3e 9fa8 51be c682 8abe
00000340: aa9f b93d a0a9 c0be 5245 8ebc d2cf 18bd
00000350: b401 81be 0b7b 113c 22c8 4abe 390e 003e
00000360: b600 32bf a1da 833c 5ce4 97be cdef 45bd
00000370: e1ea 063f 79b8 51be 3284 f33e 7278 c0be
00000380: f71e e13c 9f6a 1c3e 3a68 e5bd 68b8 a3be
00000390: 1629 0dbe 06f1 043e 8a08 4d3b 9d7d ab3e
000003a0: 716f e73d 6031 9b3d 9aa0 cdbe 08a9 b63d
000003b0: 1f5b 0e3d 8657 7bbe 9ff9 0fbe 2ee6 703d
000003c0: cb1b 8c3b 5652 22be 2ad6 2d3e 3897 c9be
000003d0: fe1d 20be 3041 8abe cb41 7e3d d165 193f
000003e0: 3fbb 6bbe 2bac 6c3d 669a f3bd c4d9 013d
000003f0: 6322 2cbb 8dde 9ebe 1a6c 6d3e c421 c43d

arith.constant3 f4 [64, 2, 2, 128]
-0.0037907339 -0.17688715 0.066249676 0.03298759 -0.31566674 -0.15722449 0.17237195 -0.06779944
-0.27054003 -0.44294542 -0.02169105 -0.07129568 -0.36885187 0.18102403 0.14298937 -0.13398248
-0.12486358 -0.597343 -0.062318984 0.30086347 -0.04301926 0.051193774 0.08672998 -0.44073218
-0.40866947 -0.2451757 0.08587078 -0.1688745 -0.058226906 0.19590136 -0.3292714 0.11974551
0.05603661 0.18125899 0.11581213 -0.009631171 -0.07465642 -0.11060842 -0.057548095 -0.057062056
0.36784685 0.10225629 -0.016275628 -0.010735057 -0.03373937 -0.38233185 0.16408886 -0.07302099
-0.002500053 0.23622333 0.077528514 -0.14859739 -0.26441094 -0.094531916 -0.5914966 0.07086998
-0.115997024 -0.17196962 0.21539596 0.1720871 -0.003999766 -0.043364014 -0.067204885 -0.22607292
-0.34622478 -0.054020174 0.17666408 -0.23176886 -0.08998617 -0.05773533 -0.2605128 0.040988132
0.080766514 -0.18733579 0.055247795 -0.07100134 -0.3525202 0.10147797 -0.21821512 0.18043737
-0.41382444 -0.38248813 -0.0151275005 0.20277232 -0.25372753 0.17921472 0.129994 0.007250365
-0.049087428 -0.061489195 -0.10251184 -0.096556276 -0.16800109 -0.23072 0.021838048 -0.30082256
0.071683 -0.032792665 -0.6972292 -0.025542494 -0.15768987 0.15934291 0.09523805 -0.114402145
-0.24987367 0.045700863 0.27011377 -0.5186413 0.07597442 -0.132142 -0.2502718 -0.0068855905
-0.63623405 -0.018975707 -0.25180754 -0.4123378 0.20205809 -0.53028494 -0.1665578 0.047014374
0.16952395 0.047793902 -0.017086457 0.045317337 -0.22091898 -0.114959225 -0.058890276 0.07550043
-0.2354921 0.057155114 -0.0300151 -0.04785331 -0.27057445 -0.31804362 0.19106956 0.1052474
-0.07772819 -0.12547317 -0.08627821 -0.01953888 -0.7339357 -0.45414287 0.04057356 -0.36235502
-0.23368376 -0.70999146 -0.16901223 -0.10043375 -0.08184383 -0.04952779 -0.0071130474 -0.4622717
-0.37532973 -0.5226751 -0.036879178 0.053570565 0.06963535 0.06635526 0.080571935 0.039658178
0.22118987 0.049073607 0.18672094 -0.3376543 -0.104378276 -0.12206101 0.18482101 -0.22214405
0.04926138 0.009782023 -0.03379906 -0.3543744 0.08217085 -0.27801237 0.24616912 -0.06616636
0.026108982 0.29693684 -0.28951502 -0.1466006 -0.33783895 -0.005349766 -0.57077855 0.051102735
0.101738915 -0.17242277 0.13461071 -0.41788098 0.1425816 -0.038873106 -0.050752357 0.07154934
-0.18501247 0.067987554 0.104389824 -0.27755734 -0.07942257 -0.10795789 -0.34353355 -0.06341434
-0.020188672 -0.4653608 -0.29036742 -0.049009345 -0.2626631 0.089157104 0.0026726204 0.19056788
-0.27190283 -0.62373734 0.1733646 0.21067707 0.050099876 0.044744108 -0.081912406 0.08302368
0.054999284 0.015398769 -0.04327943 -0.33074746 -0.5890109 0.11279735 -0.08078285 -0.41677597
-0.054346483 0.28039828 -0.62717307 -0.060863167 -0.25643408 -0.46139753 0.049722522 -0.085451536
-0.30409926 0.038171582 0.09008465 -0.3035658 -0.19812724 -0.08083288 -0.20897487 0.011309061
-0.7003735 0.012256311 -0.22780713 -0.5487361 0.24965817 -0.43887994 -0.24616252 0.0839293
0.23414186 -0.051828574 0.09433112 0.037587117 -0.11078952 -0.33508882 -0.07618617 -0.06722242
00000000: f66d 78bb e821 35be e9ad 873d ff1d 073d
00000010: 129f a1be 75ff 20be 4682 303e 6fda 8abd
00000020: 3984 8abe bec9 e2be 6eb1 b1bc 7803 92bd
00000030: 27da bcbe 5d5e 393e ce6b 123e b432 09be
00000040: 7ab8 ffbd 79eb 18bf 3142 7fbd c70a 9a3e
00000050: f734 30bd 90b0 513d 7d9f b13d a6a7 e1be
00000060: 203d d1be 570f 7bbe 05dd af3d 70ed 2cbe
00000070: 567f 6ebd 5e9a 483e 4396 a8be 223d f53d
00000080: a586 653d f59b 393e e92e ed3d 0fcc 1dbc
00000090: 77e5 98bd ab86 e2bd 8db7 6bbd e7b9 69bd
000000a0: 6c56 bc3e bf6b d13d 7754 85bc 18e2 2fbc
000000b0: 4b32 0abd 00c1 c3be e906 283e 078c 95bd
000000c0: eed7 23bb 87e4 713e 45c7 9e3d ea29 18be
000000d0: df60 87be f399 c1bd 526c 17bf 4824 913d
000000e0: d98f edbd ce18 30be c290 5c3e 9a37 303e
000000f0: 7810 83bb 779e 31bd b7a2 89bd a97f 67be
00000100: 6044 b1be 4244 5dbd 6ee7 343e d154 6dbe
00000110: ab4a b8bd e27b 6cbd ef61 85be 2ce3 273d
00000120: ea68 a53d f4d4 3fbe 834b 623d 2769 91bd
00000130: 877d b4be afd3 cf3d c973 5fbe 93c4 383e
00000140: cce0 d3be 7cd5 c3be 56d9 77bc 8ca3 4f3e
00000150: 93e8 81be 1084 373e 261d 053e 7894 ed3b
00000160: e60f 49bd 18dc 7bbd baf1 d1bd 4cbf c5bd
00000170: 7a08 2cbe dd41 6cbe b5e5 b23c 6a05 9abe
00000180: 89ce 923d 9a51 06bd 9d7d 32bf 7e3e d1bc
00000190: 7479 21be ca2a 233e 2b0c c33d ac4b eabd
000001a0: e2de 7fbe d430 3b3d 5a4c 8a3e adc5 04bf
000001b0: 7a98 9b3d 3c50 07be a023 80be 85a0 e1bb
000001c0: 3ce0 22bf f172 9bbc ebec 80be f11d d3be
000001d0: 51e8 4e3e c1c0 07bf 218e 2abe 2592 403d
000001e0: b097 2d3e 8ac3 433d e6f8 8bbc ac9e 393d
000001f0: 9638 62be be6f ebbd ee36 71bd f89f 9a3d
00000200: d724 71be 7b1b 6a3d 3ae2 f5bc d501 44bd
00000210: bc88 8abe 9dd6 a2be bda7 433e f38b d73d
00000220: f52f 9fbd 0a7c 00be a1b2 b0bd 0010 a0bc
00000230: 36e3 3bbf 6a85 e8be 7630 263d 9986 b9be
00000240: cc4a 6fbe 00c2 35bf 8b11 2dbe 36b0 cdbd
00000250: bd9d a7bd a7dd 4abd 9114 e9bb e0ae ecbe
00000260: 382b c0be 09ce 05bf 9f0e 17bd cf6c 5b3d
00000270: fa9c 8e3d 44e5 873d e602 a53d 9d70 223d
00000280: 997f 623e 6801 493d c633 3f3e 06e1 acbe
00000290: 47c4 d5bd 1ffb f9bd b841 3d3e bb79 63be
000002a0: 4dc6 493d c744 203c e270 0abd 9070 b5be
000002b0: 3149 a83d a357 8ebe c213 7c3e 3b82 87bd
000002c0: 81e2 d53c 1b08 983e 503b 94be 781e 16be
000002d0: 3af9 acbe 174d afbb 8b1e 12bf 1a51 513d
000002e0: 7e5c d03d 988f 30be 64d7 093e 7ff4 d5be
000002f0: e900 123e 6839 1fbd b4e1 4fbd 7688 923d
00000300: e973 3dbe 0f3d 8b3d 55ca d53d ff1b 8ebe
00000310: 4da8 a2bd 0719 ddbd a1e3 afbe 61df 81bd
00000320: b762 a5bc c543 eebe 0aab 94be 06be 48bd
00000330: c77b 86be 0098 b63d 2127 2f3b 3a24 433e
00000340: d936 8bbe 40ad 1fbf 7d86 313e bbbb 573e
00000350: 8735 4d3d 9945 373d b1c1 a7bd 5208 aa3d
00000360: ee46 613d 1e4b 7c3c c645 31bd bb57 a9be
00000370: 6bc9 16bf 4c02 e73d 7b71 a5bd a963 d5be
00000380: 6b9a 5ebd 5d90 8f3e 6a8e 20bf a84b 79bd
00000390: 544b 83be 4c3c ecbe d8a9 4b3d 3701 afbd
000003a0: e6b2 9bbe ce59 1c3d 4d7e b83d fa6c 9bbe
000003b0: dee1 4abe b68b a5bd 82fd 55be a449 393c
000003c0: ad4b 33bf b2ce 483c 4646 69be f879 0cbf
000003d0: 64a6 7f3e dfb4 e0be 0712 7cbe 20e3 ab3d
000003e0: e2c2 6f3e 334a 54bd ad30 c13d f3f4 193d
000003f0: 9ee5 e2bd c390 abbe 7f07 9cbd e8ab 89bd

arith.constant4 f4 [10, 16]
0.21731122 0.13182479 0.3336315 0.20866525 -0.32028106 -0.2511332 0.42578328 -0.2406823
-0.09473689 0.10359871 -0.28353673 -0.10093545 -0.08102953 0.044602957 0.21633744 -0.17607701
-0.28461933 0.05473596 -0.12425644 0.25365147 -0.34905028 -0.18584749 -0.040806536 0.04797961
-0.14785199 0.54656845 -0.37708566 -0.16472223 0.48594344 -0.026912576 -0.068023674 0.30400693
-0.0018225625 0.655841 -0.23882939 0.13574943 -0.15600307 -0.17692788 0.043964826 -0.24995594
0.30732274 -0.031751044 0.061377726 -0.07833365 -0.18231611 -0.03881043 0.13968037 0.16681573
0.1972442 0.14539257 -0.20989329 0.13661489 0.03034635 -0.38461128 -0.11914991 0.24452321
0.21699378 -0.08902099 0.2987015 -0.12363032 -0.10632702 -0.23050815 -0.16555093 0.15337953
-0.32887593 0.062619746 -0.35601163 -0.10147877 -0.27059042 0.22701477 0.11977452 -0.118558764
0.29489285 -0.18882573 0.29645282 0.16800383 -0.0758486 -0.19594263 0.41565305 0.032292794
0.29237217 0.242853 -0.13645044 -0.2551199 -0.16465059 -0.2846434 -0.12499594 -0.072561644
0.07488259 0.11104684 0.51556414 -0.10662266 -0.03527892 -0.23104559 -0.31173587 0.17134804
0.037503265 0.26801106 0.08374725 0.16835126 0.06006237 -0.14327407 -0.31530082 -0.36282584
0.35728475 -0.14246283 0.06406068 0.3966023 0.07505095 0.10618906 -0.40883455 0.23581123
0.41041526 -0.000736831 -0.31702176 -0.31376857 -0.24830452 0.1988277 -0.258654 -0.15099318
0.1742235 -0.09542839 0.22428268 -0.21758431 0.08424773 -0.09160205 0.39005786 0.30571398
-0.13838579 0.054728754 -0.14716664 -0.09532796 0.38816226 -0.23256834 0.5036682 -0.2764323
0.1278894 0.3133197 -0.24225502 -0.5128732 0.011243158 -0.100651525 -0.041348886 0.009097993
-0.14670774 -0.007306586 -0.0039298655 0.35978526 -0.28166252 0.20189233 -0.16234635 -0.18261464
-0.07445383 0.47232327 -0.11885013 -0.23678838 -0.18800779 0.45421553 0.11993374 0.21028496
00000000: d586 5e3e 14fd 063e bfd1 aa3e 58ac 553e
00000010: e1fb a3be 8894 80be 4400 da3e 6c75 76be
00000020: 6a05 c2bd 8f2b d43d ba2b 91be 3fb7 cebd
00000030: cff2 a5bd 97b1 363d 9087 5d3e 884d 34be
00000040: a0b9 91be d032 603d 297a febd 9bde 813e
00000050: b8b6 b2be ce4e 3ebe c124 27bd 4486 443d
00000060: 8366 17be e9eb 0b3f 5f11 c1be f2ac 28be
00000070: 94cd f83e c377 dcbc ff4f 8bbd cca6 9b3e
00000080: 0de3 eeba 32e5 273f b18f 74be e601 0b3e
00000090: 45bf 1fbe 952c 35be 7614 343d 73f4 7fbe
000000a0: 6859 9d3e 620d 02bd 3667 7b3d 656d a0bd
000000b0: 13b1 3abe aff7 1ebd 5f08 0f3e bed1 2a3e
000000c0: 62fa 493e cae1 143e 44ee 56be c6e4 0b3e
000000d0: e998 f83c c5eb c4be de04 f4bd 4b64 7a3e
000000e0: 9e33 5e3e a350 b6bd 67ef 983e e531 fdbd
000000f0: fbc1 d9bd 540a 6cbe 2f86 29be 860f 1d3e
00000100: 6d62 a8be c83e 803d 2847 b6be 1ad4 cfbd
00000110: d48a 8abe 8f76 683e 584c f53d f0ce f2bd
00000120: 32fc 963e 885b 41be aac8 973e 3209 2c3e
00000130: 8356 9bbd 2fa5 48be 7ad0 d43e 7345 043d
00000140: ceb1 953e 75ae 783e aab9 0bbe 139f 82be
00000150: 2a9a 28be c8bc 91be dffd ffbd 339b 94bd
00000160: 0b5c 993d 876c e33d 03fc 033f fb5c dabd
00000170: a180 10bd 3797 6cbe d89b 9fbe dc75 2f3e
00000180: 069d 193d bf38 893e ae83 ab3d 4664 2c3e
00000190: f603 763d 70b6 12be 1c6f a1be 4fc4 b9be
000001a0: 07ee b63e c7e1 11be 3f32 833d 750f cb3e
000001b0: 50b4 993d a679 d93d c352 d1be 8078 713e
000001c0: f321 d23e e427 41ba ad50 a2be 46a6 a0be
000001d0: 8a43 7ebe 7d99 4b3e 4c6e 84be f59d 1abe
000001e0: a567 323e f66f c3bd 5caa 653e 6cce 5ebe
000001f0: 138a ac3d db99 bbbd aab5 c73e 8b86 9c3e
00000200: 01b5 0dbe 422b 603d dab2 16be 4e3b c3bd
00000210: 34bd c63e 6526 6ebe 66f0 003f 8988 8dbe
00000220: 70f5 023e 716b a03e b311 78be a84b 03bf
00000230: 3935 383c 6322 cebd 735d 29bd c00f 153c
00000240: 8e3a 16be 166c efbb 1ac6 80bb c635 b83e
00000250: 1236 90be ddbc 4e3e 1f3e 26be 55ff 3abe
00000260: 407b 98bd 5bd4 f13e b267 f3bd a778 72be
00000270: 1d85 40be f08e e83e d29f f53d f154 573e

arith.constant5 f4 [16, 32]
0.35118252 0.43365505 0.2067044 0.05000632 0.2690923 -0.066723205 -0.12878114 -0.21679275
-0.08689322 -0.03893219 -0.008340577 0.06797445 0.04445001 -0.15585753 -0.24513552 -0.18751565
-0.1835966 -0.031690363 0.070252135 -0.13004664 0.06905176 0.4430244 0.104456045 0.5122381
0.060287666 -0.27138054 -0.14081444 0.17433707 0.023561992 0.032793835 -0.28706905 -0.21989593
-0.12864341 -0.1279167 -0.052426502 -0.16327824 -0.33916116 0.5487385 0.3290215 0.17727475
-0.09182413 0.07186794 0.6547283 0.47468215 0.19688228 0.70767015 -0.07970056 0.2307391
0.0073292963 -0.09298808 0.09370943 -0.17349184 0.21152495 0.3836972 -0.11719432 0.042562425
-0.008496362 -0.43718672 0.22066544 -0.41582415 0.3061199 -0.19286351 -0.28665972 -0.43190122
-0.19407976 0.34054995 0.27323064 -0.29538324 0.14171089 0.015483691 -0.70563626 0.057063166
-0.30893475 -0.0005665265 -0.122732356 -0.28445083 0.13101025 -0.16082074 0.10069393 0.28990936
-0.061022863 -0.43165934 0.17688532 0.015471173 -0.06161575 0.04050467 -0.09005163 -0.03669837
0.095787905 -0.07116026 0.4649116 -0.50878185 -0.23267321 -0.32322308 0.43115628 -0.07529914
0.43160632 -0.09604132 0.36421394 -0.22124197 0.050366282 0.16347355 0.07497439 0.082774386
0.21676329 0.10417697 0.29757708 -0.17179221 0.17341134 -0.13861284 0.11117877 0.10238378
0.05070709 -0.2488139 -0.26644486 0.087455936 0.105460554 0.15049793 -0.20887445 0.3370191
0.28546622 0.04262843 0.19260345 0.094447464 0.009050541 -0.09238517 -0.0009591915 0.13210106
0.076480426 0.0046539675 0.3460345 0.018737147 -0.06726759 -0.018573256 -0.110501856 -0.106580645
-0.15814601 0.35113308 -0.003412554 -0.11434502 -0.08230506 -0.20467274 0.08643343 0.16984612
0.3566348 0.24390754 0.15192328 0.25151017 0.039109793 0.13830765 -0.12657337 -0.15449657
0.27838394 0.014405738 -0.2401409 -0.31694523 -0.24039386 0.5020834 -0.093234316 -0.02998569
0.01775317 0.0349317 -0.072628036 0.057777103 -0.15283991 0.06752004 -0.26084116 -0.3946424
-0.36556274 -0.031203547 -0.35259545 -0.15154749 -0.063539274 0.017740615 -0.15820533 -0.16864055
-0.3091224 0.06691826 -0.017159745 -0.4155738 0.096728824 -0.13277072 -0.020430183 -0.015220505
-0.33727622 0.22934046 0.07393824 0.014140144 -0.38454682 -0.41056943 -0.3302362 -0.08752808
0.004248343 -0.124245144 -0.19814815 -0.17767699 -0.104897246 0.0066925786 0.17252508 0.17641214
0.14633569 0.32915193 0.077087134 -0.2865612 0.33840397 0.04646638 -0.17359291 0.028657291
0.08140376 0.19973968 -0.21875235 0.19349942 -0.036139883 0.35362244 -0.05196222 0.344678
-0.24434133 0.12132183 -0.079791166 0.11557347 0.29066056 0.09970658 0.4347127 -0.2988394
-0.27937582 -0.18072823 -0.18194069 0.28107253 -0.05369916 0.12124478 0.16350111 0.18767416
0.13813668 -0.2410797 -0.047545154 -0.23154248 -0.201793 0.024050422 0.20397744 -0.10307555
-0.27976462 -0.17523207 -0.16518068 -0.19683214 0.45955095 0.08893787 0.0797069 0.11796728
0.20087309 -0.06785737 0.1621849 0.13595746 0.12775244 0.24806169 -0.06514513 0.28624266
00000000: 32ce b33e 0908 de3e 51aa 533e 6dd3 4c3d
00000010: 77c6 893e 2da6 88bd 34df 03be ebfe 5dbe
00000020: 13f5 b1bd 5c77 1fbd eaa6 08bc 3036 8b3d
00000030: 3711 363d 1e99 1fbe ce04 7bbe 1a04 40be
00000040: bf00 3cbe c1cd 01bd 5ae0 8f3d f22a 05be
00000050: 026b 8d3d 18d4 e23e 0ded d53d 0922 033f
00000060: 33f0 763d 64f2 8abe a931 10be 6b85 323e
00000070: 1405 c13c d452 063d b7fa 92be 662c 61be
00000080: 19bb 03be 98fc 02be 2cbd 56bd 6932 27be
00000090: 88a6 adbe 207a 0c3f 8275 a83e 8387 353e
000000a0: 4a0e bcbd 802f 933d 469c 273f 8a09 f33e
000000b0: 829b 493e df29 353f 0c3a a3bd df46 6c3e
000000c0: 982a f03b 8970 bebd bbea bf3d d8a7 31be
000000d0: ff99 583e f673 c43e 9303 f0bd f055 2e3d
000000e0: 5334 0bbc f0d6 dfbe 1ff6 613e e7e6 d4be
000000f0: bfbb 9c3e 037e 45be 10c5 92be 2822 ddbe
00000100: d8bc 46be 905c ae3e e3e4 8b3e 793c 97be
00000110: a91c 113e 4faf 7d3c 94a4 34bf 11bb 693d
00000120: b22c 9ebe f382 14ba 1a5b fbbd 8aa3 91be
00000130: 8d27 063e 31ae 24be 9f38 ce3d 006f 943e
00000140: 1cf3 79bd 7402 ddbe 6d21 353e ce7a 7d3c
00000150: cc60 7cbd 3ae8 253d fd6c b8bd 0851 16bd
00000160: 732c c43d 78bc 91bd e508 ee3e 873f 02bf
00000170: e341 6ebe 7f7d a5be 84c0 dc3e 6f36 9abd
00000180: 81fb dc3e 50b1 c4bd 407a ba3e 418d 62be
00000190: e04c 4e3d 9c65 273e 2c8c 993d 9e85 a93d
000001a0: 32f7 5d3e bc5a d53d 065c 983e 4cea 2fbe
000001b0: be92 313e 86f0 0dbe b2b1 e33d 96ae d13d
000001c0: 3db2 4f3d 12c9 7ebe 766b 88be 191c b33d
000001d0: b4fb d73d 211c 1a3e 2fe3 55be c48d ac3e
000001e0: a128 923e 269b 2e3d d739 453e ac6d c13d
000001f0: b848 143c 7034 bdbd 4072 7bba 8045 073e
00000200: c5a1 9c3d 4f80 983b 6f2b b13e a57e 993c
00000210: 97c3 89bd f126 98bc cc4e e2bd f446 dabd
00000220: 07f1 21be b7c7 b33e 28a5 5fbb b92d eabd
00000230: 8e8f a8bd bb95 51be 0304 b13d 24ec 2d3e
00000240: d698 b63e e6c2 793e c791 1b3e f1c5 803e
00000250: 9731 203d 85a0 0d3e 739c 01be 5934 1ebe
00000260: 5788 8e3e 0b06 6c3c 7fe7 75be a546 a2be
00000270: cf29 76be 8a88 003f a2f1 bebd 8da4 f5bc
00000280: 196f 913c 8b14 0f3d 02be 94bd afa7 6c3d
00000290: 1182 1cbe f247 8a3d f98c 85be 920e cabe
000002a0: 0a2b bbbe 959e ffbc 6487 b4be 442f 1bbe
000002b0: e120 82bd c454 913c 9400 22be 1cb0 2cbe
000002c0: 4b45 9ebe 710c 893d 9892 8cbc 17c6 d4be
000002d0: c319 c63d 0cf5 07be 335d a7bc 6d5f 79bc
000002e0: 78af acbe 3ad8 6a3e ef6c 973d 10ac 673c
000002f0: 52e3 c4be 2836 d2be b814 a9be ec41 b3bd
00000300: af35 8b3b 3d74 febd 59e7 4abe f5f0 35be
00000310: 5ed4 d6bd 6b4d db3b 6aaa 303e 62a5 343e
00000320: 06d9 153e 9a86 a83e dcdf 9d3d 26b8 92be
00000330: 4943 ad3e 8853 3e3d 57c2 31be b2c2 ea3c
00000340: 04b7 a63d 8f88 4c3e 9e00 60be b624 463e
00000350: 6a07 14bd 000e b53e 56d6 54bd a379 b03e
00000360: 9d34 7abe 9477 f83d 8d69 a3bd c9b1 ec3d
00000370: 76d1 943e f732 cc3d aa92 de3e 7a01 99be
00000380: 590a 8fbe d210 39be a94e 3abe bde8 8f3e
00000390: a7f3 5bbd 2f4f f83d d66c 273e a82d 403e
000003a0: b473 0d3e 99dd 76be b5be 42bd 7919 6dbe
000003b0: d3a2 4ebe 6405 c53c 76df 503e 4619 d3bd
000003c0: 4f3d 8fbe 0970 33be 2025 29be 5d8e 49be
000003d0: 434a eb3e 0f25 b63d 5f3d a33d d498 f13d
000003e0: adb1 4d3e cef8 8abd cc13 263e 6f38 0b3e
000003f0: 89d1 023e e203 7e3e cf6a 85bd 668e 923e

arith.constant6 f4 [32, 288]
-0.053301465 -0.06318333 -0.40713447 0.37406936 0.065807454 -0.20401728 0.08962354 0.28516942
0.14524166 0.16845448 -0.29977506 0.34733456 -0.035333242 -0.077724 -0.090605505 0.11797567
-0.09554012 -0.24299069 -0.20594756 -0.08988343 0.42431664 0.20989248 0.0143475225 0.16905911
0.21101627 -0.083889015 -0.4513499 0.10207754 -0.06830459 -0.09146969 0.32445663 0.3342235
-0.373574 0.28330323 -0.23894 0.16751899 0.22246395 -0.4291108 0.1510406 -0.039256517
-0.08113643 -0.08513663 -0.66560787 0.37571472 -0.05010294 -0.046703182 -0.09045335 -0.063115105
0.13441226 -0.08390422 0.1377469 -0.36313608 0.32292613 0.20521955 0.015003318 -0.38141394
0.27389923 -0.21022603 -0.30601925 0.11303022 -0.13184798 -0.20522583 0.20005403 0.04651326
-0.13069732 0.037008405 -0.17595659 0.30560547 0.25120378 -0.1955248 0.2686274 -0.18346682
-0.14250784 0.13506092 -0.11846047 0.16571575 0.29130554 0.22722965 -0.007262417 0.013808842
0.004008508 0.14470565 -0.08477571 -0.072153464 0.3852665 0.17990904 -0.36651698 -0.034541678
0.18006173 0.27453563 -0.38126564 0.24316446 -0.2772462 -0.12803929 0.098308295 0.17359608
0.3459695 0.14857017 -0.5460387 0.21214086 -0.026379928 -0.15679698 -0.4021659 -0.1373965
0.024111416 -0.15841848 -0.061810646 0.09339625 -0.21207514 0.034080785 0.17092106 0.24272524
-0.020070562 -0.007809468 0.15854646 -0.058693077 0.25086015 -0.025204694 0.4329802 0.08815618
-0.008547233 -0.05585549 -0.2712981 -0.15412565 -0.06158865 0.06099883 0.036060154 -0.028986348
0.31047288 -0.5997071 -0.40898222 -0.10517038 -0.08708882 -0.27313566 0.1393603 -0.33878174
-0.4010511 -0.070560604 -0.2253051 0.46920857 0.10795018 -0.26766044 0.012684012 -0.03804314
0.30702084 0.033017997 0.058479697 -0.024816226 0.10225705 0.16441064 0.12676176 0.41404447
0.32547614 -0.25758663 -0.13887513 -0.0005752693 -0.23247536 -0.35252205 0.22476885 -0.09710474
-0.1055749 -0.17943476 -0.24698517 0.068324596 0.13069822 -0.18215771 -0.109194964 0.094726406
-0.1529467 -0.045238644 0.0050162934 0.18794294 -0.056427352 0.023569133 -0.0679978 0.089433484
0.37101495 0.13856252 -0.44392213 -0.1568854 0.46778142 -0.12398951 0.28487945 -0.025520269
0.27072853 -0.08358388 -0.2391921 -0.22089013 -0.093903765 -0.14625156 0.069229275 0.16214263
0.11925367 0.46253467 -0.25917268 0.062418234 -0.20484477 0.01698805 0.0024931964 0.02173919
0.24252641 -0.3440368 -0.39511254 0.13849652 -0.1812794 0.20867707 -0.0009393501 -0.007787136
-0.32606488 0.05801515 0.17317937 -0.16757394 -0.053170472 0.17921712 0.17803824 0.070910916
0.11920952 0.30481395 0.04065511 -0.12778647 0.19676645 -0.39847648 -0.16087505 0.004329471
0.08872746 0.1455429 -0.06339629 0.26393655 -0.10345815 -0.14718683 0.1482784 -0.039036643
0.12820466 -0.132906 -0.26609266 0.5309959 -0.03671552 0.21528679 0.09063378 -0.26613325
-0.15633167 0.20721534 -0.27614465 0.29715693 0.42059508 0.13254496 0.09268634 0.28272942
0.043942425 0.2843238 0.26625884 -0.19907919 -0.3542642 -0.30657393 -0.07541087 0.045768145
00000000: a352 5abd 4366 81bd ee73 d0be 0586 bf3e
00000010: 0fc6 863d e8e9 50be 8c8c b73d ba01 923e
00000020: 3bba 143e 557f 2c3e 1e7c 99be d6d5 b13e
00000030: 97b9 10bd c32d 9fbd 618f b9bd 3a9d f13d
00000040: 8aaa c3bd 8dd2 78be ebe3 52be ce14 b8bd
00000050: 0840 d93e 0eee 563e df11 6b3c d51d 2d3e
00000060: a614 583e 01ce abbd 5617 e7be 070e d13d
00000070: 47e3 8bbd 7654 bbbd 2e1f a63e 581f ab3e
00000080: 1745 bfbe 1f0d 913e b0ac 74be 198a 2b3e
00000090: 97cd 633e 69b4 dbbe 63aa 1a3e 71cb 20bd
000000a0: db2a a6bd 1d5c aebd 4765 2abf ae5d c03e
000000b0: be38 4dbd d64b 3fbd 9b3f b9bd 7e42 81bd
000000c0: 5ea3 093e fad5 abbd 860d 0d3e f9ec b9be
000000d0: 9356 a53e 1325 523e 7ad0 753c b048 c3be
000000e0: 853c 8c3e 7e45 57be 8eae 9cbe 637c e73d
000000f0: 2803 07be b826 52be f7da 4c3e b084 3e3d
00000100: 85d5 05be 2096 173d f72d 34be 5278 9c3e
00000110: c89d 803e a737 48be 8889 893e bade 3bbe
00000120: 93ed 11be 694d 0a3e 679b f2bd 64b1 293e
00000130: 0026 953e e4ae 683e 92f9 edbb 7b3e 623c
00000140: cd59 833b b82d 143e e39e adbd 32c5 93bd
00000150: a741 c53e 133a 383e 1da8 bbbe 937b 0dbd
00000160: 1a62 383e ef8f 8c3e 4035 c3be 1b00 793e
00000170: 37f3 8dbe bb1c 03be dc55 c93d 2cc3 313e
00000180: ea22 b13e c722 183e 31c9 0bbf 743b 593e
00000190: b81a d8bc 638f 20be b0e8 cdbe abb1 0cbe
000001a0: 4e85 c53c 7438 22be 292d 7dbd 8846 bf3d
000001b0: 3a2a 59be 4b98 0b3d ee05 2f3e f78c 783e
000001c0: 056b a4bc 91e6 ffbb 015a 223e 2768 70bd
000001d0: be70 803e 137a cebc 95af dd3e 3a8b b43d
000001e0: b209 0cbc bac8 64bd 96e7 8abe 1dd3 1dbe
000001f0: 6144 7cbd e9d9 793d d0b3 133d c774 edbc
00000200: 4df6 9e3e 6886 19bf 1e66 d1be 9163 d7bd
00000210: a05b b2bd 70d8 8bbe 77b4 0e3e cd74 adbe
00000220: 9256 cdbe 1482 90bd 61b6 66be 1b3c f03e
00000230: fc14 dd3d ca0a 89be 9ad0 4f3c 20d3 1bbd
00000240: d631 9d3e e13d 073d 6888 6f3d 664b cbbc
00000250: 256c d13d 435b 283e d6cd 013e a3fd d33e
00000260: cfa4 a63e 65e2 83be 4835 0ebe abcd 16ba
00000270: 050e 6ebe c57d b4be ce29 663e dade c6bd
00000280: a737 d8bd bfbd 37be aee9 7cbe c4ed 8b3d
00000290: c1d5 053e 8d87 3abe 9ca1 dfbd ebff c13d
000002a0: 0f9e 1cbe 284c 39bd b85f a43b 1d74 403e
000002b0: 5e20 67bd 0e14 c13c 6e42 8bbd e728 b73d
000002c0: acf5 bd3e 55e3 0d3e c349 e3be 91a6 20be
000002d0: 0c81 ef3e 36ee fdbd b8db 913e e20f d1bc
000002e0: ee9c 8a3e 062e abbd c6ee 74be 0631 62be
000002f0: 9e50 c0bd f8c2 15be 14c8 8d3d b808 263e
00000300: 453b f43d 58d1 ec3e 48b2 84be 43aa 7f3d
00000310: d4c2 51be 862a 8b3c e564 233b 6316 b23c
00000320: d858 783e 9725 b0be 314c cabe 08d2 0d3e
00000330: 4fa1 39be 71af 553e b83e 76ba 3b2b ffbb
00000340: faf1 a6be 4ba1 6d3d ef55 313e 8198 2bbe
00000350: 48c9 59bd b184 373e a84f 363e be39 913d
00000360: 1f24 f43d 9310 9c3e f985 263d 75da 02be
00000370: 257d 493e 1c05 ccbe 6ebc 24be 3cde 8d3b
00000380: beb6 b53d 3309 153e ead5 81bd b122 873e
00000390: dee1 d3bd 25b8 16be 4bd6 173e e3e4 1fbd
000003a0: 1548 033e 8318 08be 4c3d 88be 59ef 073f
000003b0: 0363 16bd 2474 5c3e 349e b93d 9e42 88be
000003c0: 6915 20be 4230 543e d562 8dbe f424 983e
000003d0: 3d58 d73e deb9 073e 56d2 bd3d e9c1 903e
000003e0: f9fc 333d e492 913e 1453 883e 6adb 4bbe
000003f0: 1e62 b5be 42f7 9cbe 0471 9abd 6177 3b3d

arith.constant7 f4 [10]
0.064779386 -0.35577172 -0.5731418 0.15956004 0.57413757 -0.09948729 0.29038793 -0.36340204
0.34070134 -0.10753129
00000000: 0eab 843d b627 b6be 6cb9 12bf b563 233e
00000010: aefa 123f febf cbbd baad 943e d50f babe
00000020: 6870 ae3e 5d39 dcbd

arith.constant8 f4 [16]
0.025772177 -0.31276914 0.36369926 0.07515602 0.57310873 -0.13429531 0.38088882 0.105902754
0.37387246 -0.46663818 0.32068485 0.5968719 -0.26554143 -0.11097658 0.1833419 -0.20781167
00000000: 2c20 d33c 4723 a0be ca36 ba3e 66eb 993d
00000010: 41b7 123f b684 09be dc03 c33e 8be3 d83d
00000020: 366c bf3e 33eb eebe ce30 a43e 99cc 183f
00000030: 0cf5 87be b047 e3bd fbbd 3b3e 95cc 54be

arith.constant9 f4 [32]
0.24966002 0.15108222 0.50725996 -0.119503126 -0.091571786 -0.20285228 0.3529526 0.7824939
-0.042913802 0.74887747 0.0133228935 -0.19539422 0.73056304 -0.1641755 -0.266529 0.38157904
0.2645428 -0.04106243 0.64386153 0.7438186 0.16409276 0.25520703 0.5713269 0.3000511
0.41656062 0.3940081 -0.13429631 0.16437122 0.40974474 0.6903061 1.0725744 -0.12137624
00000000: e0a6 7f3e 4cb5 1a3e cadb 013f 0ebe f4bd
00000010: fd89 bbbd 82b8 4fbe 34b6 b43e 8551 483f
00000020: 62c6 2fbd 6fb6 3f3f 4448 5a3c 6c15 48be
00000030: 2e06 3b3f 9f1d 28be 7d76 88be 545e c33e
00000040: 2772 873e 1431 28bd 1cd4 243f e56a 3e3f
00000050: ef07 283e 7faa 823e 7b42 123f 4ca0 993e
00000060: 6f47 d53e 6ebb c93e f984 09be ee50 283e
00000070: 10ca d13e e7b7 303f 1e4a 893f 1b94 f8bd

sequential_1_1/conv2d_3_1/convolution f4 [128, 2, 2, 3]
0.12058701 0.09787058 0.12766151 -0.1041078 -0.28555194 -0.41408643 0.06542992 0.30338168
0.3857857 -0.04915248 -0.18348649 -0.08213175 -0.017889565 0.01658506 -0.11466199 -0.07838059
-0.13227251 -0.33659887 0.23467155 0.26824206 0.2747115 -0.12426639 -0.16832788 -0.18334068
-0.0513453 -0.11898675 -0.026642662 -0.012317589 -0.097781606 -0.06404852 -0.015678596 0.0026286426
-0.0016284218 0.042483654 -0.14039811 -0.12426636 -0.079116695 -0.1729905 -0.21327136 0.00675273
-0.01810121 0.040553164 0.0016727614 -0.020630708 -0.08881495 0.016843926 -0.0007115269 0.08161105
-0.020281011 0.08601898 0.3510523 -0.05255679 0.13589868 0.31989592 -0.35837185 -0.28355852
-0.02521726 -0.29052603 -0.31564277 -0.002124278 -1.0407171 -0.4728567 -0.0033104052 -0.6677666
-0.2698661 -0.012462931 -1.0167692 -0.4107271 -0.14325978 -1.024329 -0.56513387 -0.045078367
-0.4269853 -0.4186432 -0.516158 0.13068274 -0.13089828 0.13124676 0.12146363 0.08540592
0.123070434 0.28902665 0.25380236 0.39793158 -0.21129695 -0.224925 -0.2097595 0.13396078
-0.042752013 -0.04728052 -0.21810284 -0.21301131 -0.13482597 0.3280066 0.33634618 0.27221557
0.20752265 0.24045485 0.3794875 -0.40202913 -0.3993783 -0.13490804 -0.20688769 -0.23148282
0.07153861 -0.11712659 -0.29511335 -0.1376721 -0.11302805 -0.18999149 -0.15673737 0.14664982
0.19835612 0.15629445 -0.27774233 -0.41370693 -0.30575955 0.200595 0.33475327 0.32066098
-0.078883626 -0.025418103 0.04925034 -0.051540338 0.061059594 -0.028519236 0.09720003 -0.071535915
-0.11818847 -0.027846275 0.04744731 -0.082797915 -0.044116765 -0.012746312 -0.042173736 0.033334415
-0.14880988 0.13153532 -0.1526241 0.0138778 0.10112041 0.010760953 -0.043784667 0.038375784
-0.07059123 -0.09859668 0.061762273 0.20144245 0.10721829 0.16990297 -0.47591698 -0.2829757
-0.45729244 -0.26201764 -0.2790429 -0.3735579 0.1797169 0.37387025 0.41733542 -0.13514687
-0.12954845 0.058874305 -0.14558682 -0.17705275 0.0911593 -0.28359973 -0.37119064 -0.35142878
0.32806212 -0.57052124 0.124842 0.26771683 -0.5075169 0.21521276 0.1632787 -0.31388438
0.13117662 0.19082537 -0.46874574 0.16489963 0.3119125 -0.20811945 0.021003095 0.2275051
-0.24897264 -0.028535187 -0.08634967 -0.22911707 -0.08120923 -0.35992444 -0.15577464 -0.0020694884
0.22667679 0.3282699 0.27509016 0.18609753 0.04808824 0.039516218 -0.29533857 -0.2673734
-0.39624485 -0.14067015 -0.07187809 -0.011600868 0.24149099 0.26361924 0.30451414 -0.21426788
-0.26676124 -0.25812557 0.21071213 0.21949044 0.1976639 -0.23088396 -0.30986372 -0.22943793
-0.26162273 0.20174907 -0.49763203 -0.34316364 0.0608971 -0.45364663 0.03388089 0.49094453
-0.21565558 -0.02109737 0.31438926 -0.19092211 0.31704497 0.26876512 -0.057581976 0.059304334
-0.040163975 -0.045692164 -0.2986601 -0.074033424 0.03427533 -0.43495217 -0.2046782 0.16426931
-0.21972391 -0.08590612 0.2709493 -0.2550536 -0.060115613 0.2700362 -0.38923272 -0.0022072003
0.2331929 -0.39308733 0.08967421 0.29319504 -0.10090389 0.03630233 -0.04421956 -0.027370391
00000000: 53f6 f63d 5f70 c83d b3b9 023e 7836 d5bd
00000010: dd33 92be 2303 d4be 1f00 863d d854 9b3e
00000020: b485 c53e 1c54 49bd e2e3 3bbe b134 a8bd
00000030: 238d 92bc 64dd 873c e8d3 eabd 0186 a0bd
00000040: 7272 07be b056 acbe bd4d 703e 0657 893e
00000050: fca6 8c3e 617f febd 255e 2cbe a9bd 3bbe
00000060: 734f 52bd 53af f3bd b641 dabc b6cf 49bc
00000070: b941 c8bd df2b 83bd 6670 80bc 4e45 2c3b
00000080: c570 d5ba 5703 2e3d 86c4 0fbe 5d7f febd
00000090: ef07 a2bd 6c24 31be cf63 5abe 0146 dd3b
000000a0: fd48 94bc 131b 263d 8f40 db3a bb01 a9bc
000000b0: 9de4 b5bd 46fc 893c c385 3aba b223 a73d
000000c0: 5d24 a6bc b82a b03d 21bd b33e ca45 57bd
000000d0: 0629 0b3e 66c9 a33e 847c b7be 952e 91be
000000e0: 6d94 cebc d4bf 94be ee9b a1be 7937 0bbb
000000f0: 3836 85bf 461a f2be 62f3 58bb c0f2 2abf
00000100: e42b 8abe 5231 4cbc 7e25 82bf d34a d2be
00000110: b1b2 12be 361d 83bf 9dac 10bf 18a4 38bd
00000120: d19d dabe 6758 d6be ee22 04bf b2d1 053e
00000130: 330a 06be 8d65 063e ecc1 f83d 4de9 ae3d
00000140: 5a0c fc3d 4dfb 933e 62f2 813e b0bd cb3e
00000150: 3a5e 58be bd52 66be 32cb 56be 042d 093e
00000160: bc1c 2fbd 38a9 41bd 5a56 5fbe a31f 5abe
00000170: d20f 0abe 7bf0 a73e 9135 ac3e d75f 8b3e
00000180: d180 543e cc39 763e 304c c23e c3d6 cdbe
00000190: 507b ccbe 5525 0abe 5eda 53be d509 6dbe
000001a0: d682 923d 11e0 efbd 1919 97be eaf9 0cbe
000001b0: 407b e7bd 218d 42be c37f 20be 5f2b 163e
000001c0: de1d 4b3e a70b 203e 3e34 8ebe 65d1 d3be
000001d0: 848c 9cbe c768 4d3e c864 ab3e ad2d a43e
000001e0: bd8d a1bd a039 d0bc b9ba 493d f61b 53bd
000001f0: a019 7a3d 2ca1 e9bc cf10 c73d 6c81 92bd
00000200: cc0c f2bd df1d e4bc 1c58 423d f491 a9bd
00000210: c8b3 34bd e8d5 50bc 5ebe 2cbd ab89 083d
00000220: 9e61 18be 32b1 063e 7e49 1cbe b65f 633c
00000230: 3818 cf3d b54e 303c 8d57 33bd ed2f 1d3d
00000240: 2392 90bd 0eed c9bd 70fa 7c3d ee46 4e3e
00000250: 4395 db3d 0bfb 2d3e 64ab f3be 31e2 90be
00000260: 3c22 eabe 2d27 86be b6de 8ebe fb42 bfbe
00000270: b507 383e ec6b bf3e fdac d53e f163 0abe
00000280: 59a8 04be 2f26 713d b614 15be 514d 35be
00000290: bab1 ba3d fc33 91be b30c bebe 79ee b3be
000002a0: c2f7 a73e ae0d 12bf 2aad ff3d 2e12 893e
000002b0: a1ec 01bf bc60 5c3e 8832 273e 74b5 a0be
000002c0: 2a53 063e ba67 433e 71ff efbe 73db 283e
000002d0: ffb2 9f3e 441d 55be af0e ac3c 19f7 683e
000002e0: aff2 7ebe a0c2 e9bc 19d8 b0bd aa9d 6abe
000002f0: 0651 a6bd 0448 b8be 6383 1fbe 41a0 07bb
00000300: f61d 683e fe12 a83e 9ed8 8c3e 5a90 3e3e
00000310: 2df8 443d c2db 213d 9e36 97be 2be5 88be
00000320: 9be0 cabe d60b 10be d234 93bd 9111 3ebc
00000330: 6a49 773e 1af9 863e 47e9 9b3e 0a69 5bbe
00000340: ee94 88be 0929 84be ecc4 573e 1ac2 603e
00000350: 6868 4a3e d86c 6cbe 75a6 9ebe c7f1 6abe
00000360: 6af3 85be 4f97 4e3e a0c9 febe 25b3 afbe
00000370: 3d6f 793d 5f44 e8be b0c6 0a3d 155d fb3e
00000380: d1d4 5cbe 64d4 acbc a1f7 a03e 1681 43be
00000390: b853 a23e 959b 893e 14db 6bbd 1ae9 723d
000003a0: fb82 24bd b527 3bbd fae9 98be d69e 97bd
000003b0: 4a64 0c3d 0db2 debe 2997 51be 3736 283e
000003c0: 4eff 60be 8cef afbd deb9 8a3e 6396 82be
000003d0: ca3b 76bd 2f42 8a3e 8349 c7be ada6 10bb
000003e0: 1fca 6e3e be42 c9be 1da7 b73d a91d 963e
000003f0: b3a6 cebd c1b1 143d 921f 35bd df37 e0bc

sequential_1_1/activation_6_1/Relu;sequential_1_1/conv2d_3_1/add;sequential_1_1/conv2d_3_1/convolution; f4 [128]
0.0052450765 0.10466129 -0.018706372 -0.09270181 -0.0021794338 0.23383555 -0.17835246 0.033510603
0.14458638 -0.004139216 -0.047651645 -0.24222621 0.14876641 0.0023941859 -0.046032965 0.15454434
-0.012106648 -0.0013614955 0.024109218 0.10064926 -0.22630674 -0.017132433 -0.07216061 0.02870097
0.0013898239 -0.10523113 -0.07850069 -0.3260828 -0.020798454 0.008358532 0.17955922 0.09052827
-0.057233833 -0.0544924 -0.06321073 -0.24705924 -0.044000916 0.18043625 -0.11378514 0.014838707
-0.014018826 -0.018265236 -0.048453253 0.010532923 -0.02412032 -0.0207455 -0.009954663 -0.36587918
-0.026987761 0.045536835 -0.02497997 -0.37120104 -0.014212211 -0.023865063 -0.008215567 -0.027941918
-0.112027735 0.004965257 0.015234026 0.004276687 -0.0020993082 -0.038528014 -0.011321569 0.11927607
-0.2304425 0.0214111 0.048386298 -0.4555643 -0.07271552 0.10868171 0.18818633 -0.020974467
-0.09075101 -0.10338063 0.15717235 -0.03382566 0.009659777 -0.11328362 -0.25375682 0.015564542
0.015467208 -0.012855988 -0.09884733 0.10487327 0.0072569684 -0.010758439 0.09427094 -0.38374063
-0.083897226 -0.013342922 0.15098374 0.016606674 0.039253168 0.005916075 -0.025563404 0.13679984
0.044494484 -0.04251469 -0.00447318 -0.0045357286 0.043931782 0.014020162 -0.04532755 0.013479777
-0.02084863 0.022010675 0.011963563 -0.23528466 -0.25837657 -0.013515007 0.24603695 0.13555874
-0.0068290085 -0.035386465 -0.005273636 -0.005421534 0.014657549 0.004658417 0.08682085 -0.011839764
0.017454766 -0.0329421 -0.03238155 -0.05199714 -0.015056496 -0.46405497 0.0168887 0.09225149
00000000: e4de ab3b a958 d63d 1b3e 99bc 72da bdbd
00000010: d5d4 0ebb 9672 6f3e 07a2 36be 6a42 093d
00000020: 740e 143e 43a2 87bb 5f2e 43bd 260a 78be
00000030: 3956 183e c6e7 1c3b 108d 3cbd df40 1e3e
00000040: f65a 46bc 3574 b2ba b280 c53c 3321 ce3d
00000050: f4bc 67be 5159 8cbc f1c8 93bd 4c1e eb3c
00000060: c02a b63a 6b83 d7bd f8c4 a0bd 53f4 a6be
00000070: 8561 aabc 39f2 083c 5fde 373e e366 b93d
00000080: 066e 6abd 6c33 5fbd a174 81bd 19fd 7cbe
00000090: 4e3a 34bd 48c4 383e 2f08 e9bd 0c1e 733c
000000a0: 38af 65bc faa0 95bc eb76 46bd 4892 2c3c
000000b0: fa97 c5bc 78f2 a9bc e218 23bc 8454 bbbe
000000c0: 7015 ddbc d584 3a3d cba2 ccbc 100e bebe
000000d0: 55da 68bc aa80 c3bc 969a 06bc 73e6 e4bc
000000e0: cc6e e5bd 98b3 a23b 2398 793c 7323 8c3b
000000f0: 8c94 09bb 8dcf 1dbd 1a7e 39bc 0347 f43d
00000100: 1ef9 6bbe 5566 af3c b630 463d b93f e9be
00000110: e0eb 94bd 8494 de3d ebb3 403e a5d2 abbc
00000120: aadb b9bd 39b9 d3bd caf1 203e c68c 0abd
00000130: 0b44 1e3c 3e01 e8bd 6aec 81be 6c02 7f3c
00000140: 2c6a 7d3c eca1 52bc 7870 cabd ccc7 d63d
00000150: ddcb ed3b 2a44 30bc 1f11 c13d a779 c4be
00000160: 4fd2 abbd 459c 5abc 7b9b 1a3e b80a 883c
00000170: eec7 203d a2db c13b 586a d1bc 4215 0c3e
00000180: d93f 363d e223 2ebd c193 92bb 73a0 94bb
00000190: d0f1 333d d2b4 653c 62a9 39bd 48da 5c3c
000001a0: bfca aabc bb4f b43c d202 443c 76ee 70be
000001b0: ef49 84be 0c6e 5dbc 1cf1 7b3e e9cf 0a3e
000001c0: e0c5 dfbb 66f1 10bd 77ce acbb 20a7 b1bb
000001d0: 3726 703c a2a5 983b 21cf b13d 92fb 41bc
000001e0: 4cfd 8e3c 4cee 06bd 84a2 04bd f4fa 54bd
000001f0: 85af 76bc 9d98 edbe 2c5a 8a3c 59ee bc3d
