excs/exc13/cfar10_saved_onnx.onnx (onnx, 214874 bytes, 12 tensors)

sequential_1_1/dense_5_1/Cast/ReadVariableOp:0 f4 [16, 10]
0	0x3e5e86d5	0.21731122
1	0xbe91b9a0	-0.28461933
2	0xbaeee30d	-0.0018225625
3	0x3e49fa62	0.1972442
4	0xbea8626d	-0.32887593
5	0x3e95b1ce	0.29237217
6	0x3d199d06	0.037503265
7	0x3ed221f3	0.41041526
8	0xbe0db501	-0.13838579
9	0xbe163a8e	-0.14670774
10	0x3e06fd14	0.13182479
11	0x3d6032d0	0.05473596
12	0x3f27e532	0.655841
13	0x3e14e1ca	0.14539257
14	0x3d803ec8	0.062619746
15	0x3e78ae75	0.242853
16	0x3e8938bf	0.26801106
17	0xba4127e4	-0.000736831
18	0x3d602b42	0.054728754
19	0xbbef6c16	-0.007306586
20	0x3eaad1bf	0.3336315
21	0xbdfe7a29	-0.12425644
22	0xbe748fb1	-0.23882939
23	0xbe56ee44	-0.20989329
24	0xbeb64728	-0.35601163
25	0xbe0bb9aa	-0.13645044
26	0x3dab83ae	0.08374725
27	0xbea250ad	-0.31702176
28	0xbe16b2da	-0.14716664
29	0xbb80c61a	-0.0039298655
30	0x3e55ac58	0.20866525
31	0x3e81de9b	0.25365147
32	0x3e0b01e6	0.13574943
33	0x3e0be4c6	0.13661489
34	0xbdcfd41a	-0.10147877
35	0xbe829f13	-0.2551199
36	0x3e2c6446	0.16835126
37	0xbea0a646	-0.31376857
38	0xbdc33b4e	-0.09532796
39	0x3eb835c6	0.35978526
40	0xbea3fbe1	-0.32028106
41	0xbeb2b6b8	-0.34905028
42	0xbe1fbf45	-0.15600307
43	0x3cf898e9	0.03034635
44	0xbe8a8ad4	-0.27059042
45	0xbe289a2a	-0.16465059
46	0x3d7603f6	0.06006237
47	0xbe7e438a	-0.24830452
48	0x3ec6bd34	0.38816226
49	0xbe903612	-0.28166252
50	0xbe809488	-0.2511332
51	0xbe3e4ece	-0.18584749
52	0xbe352c95	-0.17692788
53	0xbec4ebc5	-0.38461128
54	0x3e68768f	0.22701477
55	0xbe91bcc8	-0.2846434
56	0xbe12b670	-0.14327407
57	0x3e4b997d	0.1988277
58	0xbe6e2665	-0.23256834
59	0x3e4ebcdd	0.20189233
60	0x3eda0044	0.42578328
61	0xbd2724c1	-0.040806536
62	0x3d341476	0.043964826
63	0xbdf404de	-0.11914991
64	0x3df54c58	0.11977452
65	0xbdfffddf	-0.12499594
66	0xbea16f1c	-0.31530082
67	0xbe846e4c	-0.258654
68	0x3f00f066	0.5036682
69	0xbe263e1f	-0.16234635
70	0xbe76756c	-0.2406823
71	0x3d448644	0.04797961
72	0xbe7ff473	-0.24995594
73	0x3e7a644b	0.24452321
74	0xbdf2cef0	-0.118558764
75	0xbd949b33	-0.072561644
76	0xbeb9c44f	-0.36282584
77	0xbe1a9df5	-0.15099318
78	0xbe8d8889	-0.2764323
79	0xbe3aff55	-0.18261464
80	0xbdc2056a	-0.09473689
81	0xbe176683	-0.14785199
82	0x3e9d5968	0.30732274
83	0x3e5e339e	0.21699378
84	0x3e96fc32	0.29489285
85	0x3d995c0b	0.07488259
86	0x3eb6ee07	0.35728475
87	0x3e3267a5	0.1742235
88	0x3e02f570	0.1278894
89	0xbd987b40	-0.07445383
90	0x3dd42b8f	0.10359871
91	0x3f0bebe9	0.54656845
92	0xbd020d62	-0.031751044
93	0xbdb650a3	-0.08902099
94	0xbe415b88	-0.18882573
95	0x3de36c87	0.11104684
96	0xbe11e1c7	-0.14246283
97	0xbdc36ff6	-0.09542839
98	0x3ea06b71	0.3133197
99	0x3ef1d45b	0.47232327
100	0xbe912bba	-0.28353673
101	0xbec1115f	-0.37708566
102	0x3d7b6736	0.061377726
103	0x3e98ef67	0.2987015
104	0x3e97c8aa	0.29645282
105	0x3f03fc03	0.51556414
106	0x3d83323f	0.06406068
107	0x3e65aa5c	0.22428268
108	0xbe7811b3	-0.24225502
109	0xbdf367b2	-0.11885013
110	0xbdceb73f	-0.10093545
111	0xbe28acf2	-0.16472223
112	0xbda06d65	-0.07833365
113	0xbdfd31e5	-0.12363032
114	0x3e2c0932	0.16800383
115	0xbdda5cfb	-0.10662266
116	0x3ecb0f75	0.3966023
117	0xbe5ece6c	-0.21758431
118	0xbf034ba8	-0.5128732
119	0xbe7278a7	-0.23678838
120	0xbda5f2cf	-0.08102953
121	0x3ef8cd94	0.48594344
122	0xbe3ab113	-0.18231611
123	0xbdd9c1fb	-0.10632702
124	0xbd9b5683	-0.0758486
125	0xbd1080a1	-0.03527892
126	0x3d99b450	0.07505095
127	0x3dac8a13	0.08424773
128	0x3c383539	0.011243158
129	0xbe40851d	-0.18800779
130	0x3d36b197	0.044602957
131	0xbcdc77c3	-0.026912576
132	0xbd1ef7af	-0.03881043
133	0xbe6c0a54	-0.23050815
134	0xbe48a52f	-0.19594263
135	0xbe6c9737	-0.23104559
136	0x3dd979a6	0.10618906
137	0xbdbb99db	-0.09160205
138	0xbdce2263	-0.100651525
139	0x3ee88ef0	0.45421553
140	0x3e5d8790	0.21633744
141	0xbd8b4fff	-0.068023674
142	0x3e0f085f	0.13968037
143	0xbe29862f	-0.16555093
144	0x3ed4d07a	0.41565305
145	0xbe9f9bd8	-0.31173587
146	0xbed152c3	-0.40883455
147	0x3ec7b5aa	0.39005786
148	0xbd295d73	-0.041348886
149	0x3df59fd2	0.11993374
150	0xbe344d88	-0.17607701
151	0x3e9ba6cc	0.30400693
152	0x3e2ad1be	0.16681573
153	0x3e1d0f86	0.15337953
154	0x3d044573	0.032292794
155	0x3e2f75dc	0.17134804
156	0x3e717880	0.23581123
157	0x3e9c868b	0.30571398
158	0x3c150fc0	0.009097993
159	0x3e5754f1	0.21028496

sequential_1_1/dense_5_1/Add/ReadVariableOp:0 f4 [10]
0	0x3d84ab0e	0.064779386
1	0xbeb627b6	-0.35577172
2	0xbf12b96c	-0.5731418
3	0x3e2363b5	0.15956004
4	0x3f12faae	0.57413757
5	0xbdcbbffe	-0.09948729
6	0x3e94adba	0.29038793
7	0xbeba0fd5	-0.36340204
8	0x3eae7068	0.34070134
9	0xbddc395d	-0.10753129

sequential_1_1/dense_4_1/Cast/ReadVariableOp:0 f4 [32, 16]
0	0x3eb3ce32	0.35118252
1	0xbe03bb19	-0.12864341
2	0xbe46bcd8	-0.19407976
3	0x3edcfb81	0.43160632
4	0x3d9ca1c5	0.076480426
5	0x3c916f19	0.01775317
6	0x3b8b35af	0.004248343
7	0xbe8f0a59	-0.27937582
8	0xbd9f0ede	-0.077665076
9	0xbe08be15	-0.1335376
10	0xbcdedd0e	-0.027205016
11	0x3e80f284	0.25185025
12	0x3e509bc0	0.20371914
13	0x3e8ce190	0.2751584
14	0x3d83d20d	0.064365484
15	0xbe670295	-0.22559579
16	0x3ede0809	0.43365505
17	0xbe02fc98	-0.1279167
18	0x3eae5c90	0.34054995
19	0xbdc4b150	-0.09604132
20	0x3b98804f	0.0046539675
21	0x3d0f148b	0.0349317
22	0xbdfe743d	-0.124245144
23	0xbe3910d2	-0.18072823
24	0xbe9b0c71	-0.3028293
25	0xbe1fd73a	-0.15609446
26	0x3da1b267	0.07895356
27	0xbe3c0796	-0.18362269
28	0x3e9c037f	0.30471417
29	0x3e36cbfa	0.17851248
30	0x3ef44b70	0.47713804
31	0xbd1dad3f	-0.0384953
32	0x3e53aa51	0.2067044
33	0xbd56bd2c	-0.052426502
34	0x3e8be4e3	0.27323064
35	0x3eba7a40	0.36421394
36	0x3eb12b6f	0.3460345
37	0xbd94be02	-0.072628036
38	0xbe4ae759	-0.19814815
39	0xbe3a4ea9	-0.18194069
40	0xbe2f26bd	-0.17104621
41	0x3e5b0859	0.21389903
42	0x3c1786ab	0.009248416
43	0x3edc6d37	0.43052074
44	0xbda6f739	-0.08152623
45	0xbeff5249	-0.49867466
46	0xbdb5f57f	-0.08884715
47	0x3e5c4bc4	0.21513277
48	0x3d4cd36d	0.05000632
49	0xbe273269	-0.16327824
50	0xbe973c79	-0.29538324
51	0xbe628d41	-0.22124197
52	0x3c997ea5	0.018737147
53	0x3d6ca7af	0.057777103
54	0xbe35f0f5	-0.17767699
55	0x3e8fe8bd	0.28107253
56	0xbe82d21b	-0.25550923
57	0xbeb10c75	-0.34579816
58	0xbcd8f12f	-0.026482193
59	0xbdb09994	-0.08623043
60	0xbe96bf68	-0.29442906
61	0x3e0a1911	0.13486125
62	0xbe4fb757	-0.20284782
63	0x3e792fcc	0.2433464
64	0x3e89c677	0.2690923
65	0xbeada688	-0.33916116
66	0x3e111ca9	0.14171089
67	0x3d4e4ce0	0.050366282
68	0xbd89c397	-0.06726759
69	0xbe1c8211	-0.15283991
70	0xbdd6d45e	-0.104897246
71	0xbd5bf3a7	-0.05369916
72	0xbe6443bb	-0.22291462
73	0x3d74e9e8	0.059793383
74	0xbd11318a	-0.035447635
75	0xbe7bf102	-0.24603656
76	0x3d8c4e5b	0.068508826
77	0x3e7f26bb	0.24917118
78	0x3e29adfe	0.16570279
79	0xbe11aca0	-0.14226007
80	0xbd88a62d	-0.066723205
81	0x3f0c7a20	0.5487385
82	0x3c7daf4f	0.015483691
83	0x3e27659c	0.16347355
84	0xbc9826f1	-0.018573256
85	0x3d8a47f2	0.06752004
86	0x3bdb4d6b	0.0066925786
87	0x3df84f2f	0.12124478
88	0x3e0dc159	0.13843288
89	0xbc38b28f	-0.01127304
90	0xbeb0b4e0	-0.34512997
91	0xbe06a653	-0.13149385
92	0x3e8e3e2e	0.27781814
93	0xbe721603	-0.2364121
94	0x3e158b5f	0.14603947
95	0x3cb6675b	0.02226608
96	0xbe03df34	-0.12878114
97	0x3ea87582	0.3290215
98	0xbf34a494	-0.70563626
99	0x3d998c2c	0.07497439
100	0xbde24ecc	-0.110501856
101	0xbe858cf9	-0.26084116
102	0x3e30aa6a	0.17252508
103	0x3e276cd6	0.16350111
104	0x3e694a72	0.22782305
105	0xbea9d695	-0.33171526
106	0xbe4c9c1a	-0.19981423
107	0x3e99a203	0.30006418
108	0x3e950ae9	0.29109886
109	0x3daa6a59	0.083210655
110	0xbe30864b	-0.17238729
111	0x3e420a7e	0.18949315
112	0xbe5dfeeb	-0.21679275
113	0x3e358783	0.17727475
114	0x3d69bb11	0.057063166
115	0x3da9859e	0.082774386
116	0xbdda46f4	-0.106580645
117	0xbeca0e92	-0.3946424
118	0x3e34a562	0.17641214
119	0x3e402da8	0.18767416
120	0xbde3f864	-0.11131361
121	0x3cdf2d6b	0.027243337
122	0x3e89bc30	0.26901388
123	0x3ebe3449	0.37149265
124	0xbe786074	-0.24255544
125	0xbe5adc79	-0.21373166
126	0x3e893c04	0.268036
127	0xbdf8a192	-0.12140192
128	0xbdb1f513	-0.08689322
129	0xbdbc0e4a	-0.09182413
130	0xbe9e2cb2	-0.30893475
131	0x3e5df732	0.21676329
132	0xbe21f107	-0.15814601
133	0xbebb2b0a	-0.36556274
134	0x3e15d906	0.14633569
135	0x3e0d73b4	0.13813668
136	0x3ecde19e	0.40211195
137	0x3dfc2d0b	0.12313279
138	0x3d24dc86	0.04024937
139	0xbc950a41	-0.018193366
140	0x3e8e4cfb	0.27793106
141	0xbefaac3f	-0.48959538
142	0x3e400942	0.18753532
143	0xbe788e73	-0.2427309
144	0xbd1f775c	-0.03893219
145	0x3d932f80	0.07186794
146	0xba1482f3	-0.0005665265
147	0x3dd55abc	0.10417697
148	0x3eb3c7b7	0.35113308
149	0xbcff9e95	-0.031203547
150	0x3ea8869a	0.32915193
151	0xbe76dd99	-0.2410797
152	0x3d9256a6	0.07145433
153	0xbddb3998	-0.107043445
154	0xb9561de4	-0.00020419765
155	0x3e71d225	0.2361532
156	0x3e6a25ce	0.22865984
157	0xbdaf2075	-0.085511126
158	0xbe824d07	-0.25449392
159	0xbc48e74b	-0.012262176
160	0xbc08a6ea	-0.008340577
161	0x3f279c46	0.6547283
162	0xbdfb5b1a	-0.122732356
163	0x3e985c06	0.29757708
164	0xbb5fa528	-0.003412554
165	0xbeb48764	-0.35259545
166	0x3d9ddfdc	0.077087134
167	0xbd42beb5	-0.047545154
168	0x3da75632	0.08170737
169	0xbc6edb14	-0.0145785995
170	0xbe705977	-0.23471628
171	0xbe05b339	-0.1305665
172	0x3d9b22d1	0.07575
173	0xbe293005	-0.16522224
174	0x3e4667b7	0.19375502
175	0xbcbd92e7	-0.023141338
176	0x3d8b3630	0.06797445
177	0x3ef3098a	0.47468215
178	0xbe91a38a	-0.28445083
179	0xbe2fea4c	-0.17179221
180	0xbdea2db9	-0.11434502
181	0xbe1b2f44	-0.15154749
182	0xbe92b826	-0.2865612
183	0xbe6d1979	-0.23154248
184	0x3e695a6b	0.22788398
185	0xbdcc9028	-0.09988433
186	0x3e8ee244	0.27907002
187	0xbd12aeaf	-0.035811123
188	0x3e103938	0.14084327
189	0x3d660cff	0.056164738
190	0x3eb08c3d	0.34481993
191	0x3e8477f4	0.25872767
192	0x3d361137	0.04445001
193	0x3e499b82	0.19688228
194	0x3e06278d	0.13101025
195	0x3e3192be	0.17341134
196	0xbda88f8e	-0.08230506
197	0xbd8220e1	-0.063539274
198	0x3ead4349	0.33840397
199	0xbe4ea2d3	-0.201793
200	0xbe3b4308	-0.18287289
201	0xbde8cb18	-0.11366862
202	0xbd74833b	-0.059695464
203	0x3e48bb74	0.19602758
204	0xbe4c7c6a	-0.19969335
205	0xbd8ec582	-0.069712654
206	0x3e8a06a0	0.2695818
207	0xbcd9abd9	-0.026571201
208	0xbe1f991e	-0.15585753
209	0x3f3529df	0.70767015
210	0xbe24ae31	-0.16082074
211	0xbe0df086	-0.13861284
212	0xbe5195bb	-0.20467274
213	0x3c9154c4	0.017740615
214	0x3d3e5388	0.04646638
215	0x3cc50564	0.024050422
216	0x3d8b5b3b	0.0680451
217	0x3d7244cb	0.059147637
218	0xbdac4278	-0.084111154
219	0xbddaf17e	-0.10690592
220	0xbe8380a3	-0.2568408
221	0xbe422930	-0.18961024
222	0x3d7fd09e	0.062454812
223	0x3d3309f6	0.04371067
224	0xbe7b04ce	-0.24513552
225	0xbda33a0c	-0.07970056
226	0x3dce389f	0.10069393
227	0x3de3b1b2	0.11117877
228	0x3db10403	0.08643343
229	0xbe220094	-0.15820533
230	0xbe31c257	-0.17359291
231	0x3e50df76	0.20397744
232	0xbe4fd9bc	-0.20297903
233	0x3f01f7aa	0.5076853
234	0xbdfc364a	-0.12315042
235	0xbde84789	-0.11341769
236	0x3d796d5b	0.060895305
237	0x3e901591	0.28141454
238	0xbd7c0713	-0.061530184
239	0x3df7a6da	0.12092371
240	0xbe40041a	-0.18751565
241	0x3e6c46df	0.2307391
242	0x3e946f00	0.28990936
243	0x3dd1ae96	0.10238378
244	0x3e2dec24	0.16984612
245	0xbe2cb01c	-0.16864055
246	0x3ceac2b2	0.028657291
247	0xbdd31946	-0.10307555
248	0xbe16346f	-0.1466844
249	0xbe9b01cf	-0.30274817
250	0xbe123272	-0.14277056
251	0x3e94a63f	0.29033086
252	0xbe1f1846	-0.15536603
253	0xbd86a87a	-0.06575103
254	0xbe106d9d	-0.14104314
255	0x3e49dd2e	0.1971328

sequential_1_1/dense_4_1/Add/ReadVariableOp:0 f4 [16]
0	0x3cd3202c	0.025772177
1	0xbea02347	-0.31276914
2	0x3eba36ca	0.36369926
3	0x3d99eb66	0.07515602
4	0x3f12b741	0.57310873
5	0xbe0984b6	-0.13429531
6	0x3ec303dc	0.38088882
7	0x3dd8e38b	0.105902754
8	0x3ebf6c36	0.37387246
9	0xbeeeeb33	-0.46663818
10	0x3ea430ce	0.32068485
11	0x3f18cc99	0.5968719
12	0xbe87f50c	-0.26554143
13	0xbde347b0	-0.11097658
14	0x3e3bbdfb	0.1833419
15	0xbe54cc95	-0.20781167

sequential_1_1/dense_3_1/Cast/ReadVariableOp:0 f4 [288, 32]
0	0xbd5a52a3	-0.053301465
1	0xbe0f4bba	-0.13993731
2	0xbdadd967	-0.08488732
3	0xbdd3fde5	-0.10351161
4	0x3e1572d7	0.14594589
5	0xbf21a886	-0.6314777
6	0xbdc4e5eb	-0.09614166
7	0x3dc0472b	0.09388574
8	0x3e103fe8	0.14086878
9	0x3e140a29	0.14457001
10	0xbee433ad	-0.44570675
11	0xbe7a7aa5	-0.24460848
12	0x3e290aa5	0.16507967
13	0x3e85fb56	0.26168317
14	0xbe170fbc	-0.14752096
15	0x3e1a2a2e	0.15055153
16	0xbccc53d7	-0.024942322
17	0xbe5c2bc9	-0.21501078
18	0xbe806805	-0.2507936
19	0xbe15fb0e	-0.14646551
20	0x3d70377a	0.058646657
21	0xbdf8288e	-0.1211711
22	0xbe125322	-0.14289525
23	0x3ea5fa31	0.32417443
24	0x3cf36f0f	0.029716043
25	0xbeb58018	-0.3544929
26	0xbdd6f81c	-0.10496542
27	0x3ec5462c	0.385301
28	0xbe014347	-0.1262332
29	0x3e570a3e	0.21000001
30	0xbebbf1e1	-0.36707976
31	0x3e24f43d	0.16108795
32	0xbd816643	-0.06318333
33	0xbc155ca7	-0.009116328
34	0xbeb3d951	-0.35126737
35	0x3c113bbb	0.0088643385
36	0x3dba67fc	0.09101865
37	0xbf03182b	-0.5120875
38	0x3cdc5853	0.026897585
39	0x3e0b4ccb	0.13603513
40	0x3df8e96f	0.12153899
41	0x3dbfc11f	0.09363007
42	0xbd99e525	-0.07514409
43	0x3d5dad00	0.054120064
44	0xbe217eef	-0.15771078
45	0xbe3955d1	-0.18099143
46	0xbe2bf9cf	-0.16794513
47	0x3e18e36c	0.14930505
48	0xbc018200	-0.00790453
49	0xbe26fb65	-0.16306837
50	0xbd389ae6	-0.045069598
51	0xbcdc9c05	-0.026929865
52	0xbcc16b4f	-0.023610739
53	0xba2fe92e	-0.00067104667
54	0x3ea7bb67	0.32760164
55	0xbd292f85	-0.041305084
56	0xbe210062	-0.15722802
57	0xbe2ab0f8	-0.1666907
58	0x3ec1dfa8	0.3786595
59	0x3e69950e	0.22810766
60	0x3e93cd4b	0.28867564
61	0x3d4cd984	0.050012127
62	0xbe048ff7	-0.12945543
63	0x3e1b5dfa	0.15172568
64	0xbed073ee	-0.40713447
65	0xbd87ff4a	-0.066404894
66	0x3db8a671	0.09016121
67	0xbc62bb44	-0.013838593
68	0x3dfc9ac6	0.12334208
69	0x3bd37287	0.0064528617
70	0xbe321d6b	-0.17394035
71	0x3d8b2ab7	0.067952566
72	0xbe30abe8	-0.17253077
73	0x3d868588	0.06568438
74	0x3e0bbf54	0.13647205
75	0x3dc41553	0.0957438
76	0x3e7a43f7	0.24439989
77	0xbe71079b	-0.23538058
78	0xbe207ee6	-0.15673408
79	0xbe28a2fc	-0.16468424
80	0xbe592cd3	-0.21208505
81	0x3e0c3ffa	0.1369628
82	0x3e7d1f95	0.24719079
83	0x3c8cf380	0.017205954
84	0x3e04547c	0.12922853
85	0xbda371c4	-0.079806834
86	0x3b72f299	0.003707087
87	0x3e52d161	0.20587684
88	0x3ec51c42	0.38498122
89	0x3e8f33eb	0.27969298
90	0xbe540e38	-0.20708549
91	0x3d0504c1	0.032475237
92	0xbe142267	-0.14466248
93	0x3e64a197	0.22327267
94	0xbc8bfb18	-0.017087504
95	0xbd59fd5c	-0.053220138
96	0x3ebf8605	0.37406936
97	0xbcf2cfb8	-0.029640064
98	0xbe652eb5	-0.22381099
99	0xbd2d02d1	-0.042239014
100	0xbe8c23a5	-0.27370945
101	0x3ddb363a	0.10703702
102	0xbb8f08b6	-0.004365052
103	0x3e86e3eb	0.26345763
104	0xbd8997e9	-0.06718428
105	0xbeaf3baf	-0.34225222
106	0xbdf2682b	-0.11836275
107	0xbd410915	-0.047127802
108	0x3e9560a8	0.29175305
109	0xbef84139	-0.4848726
110	0xbe316433	-0.17323379
111	0xbd473f9f	-0.04864466
112	0x3eb08e1a	0.34483415
113	0xbd63d1c3	-0.055619966
114	0xbf44d257	-0.76883453
115	0xbf1bdd08	-0.6088414
116	0x3ed751b1	0.42054513
117	0x3d08a2b8	0.033358306
118	0x3e1495b1	0.14510228
119	0x3d7ac0fe	0.061219208
120	0x3d0d60d2	0.034516163
121	0xbe0c5460	-0.13704062
122	0xbe5b8be1	-0.21440078
123	0x3e2f6952	0.1713002
124	0x3dc64c64	0.09682539
125	0x3eb7fc9d	0.35934916
126	0xbef7e77f	-0.48418805
127	0xbd70b749	-0.058768544
128	0x3d86c60f	0.065807454
129	0xbe0b393f	-0.13596056
130	0x3e8dd434	0.2770096
131	0xbdb86d56	-0.09005229
132	0x3e0000f8	0.1250037
133	0xbed056f5	-0.40691343
134	0x3e38162a	0.17977205
135	0x3e84171a	0.25798875
136	0xbdb7fa59	-0.08983297
137	0xbde1a0fb	-0.11017033
138	0x3df129d0	0.11775553
139	0xbe1f8302	-0.1557732
140	0xbd73e23d	-0.05954193
141	0xbdfe3b64	-0.124136716
142	0x3dd1a25f	0.10236048
143	0xbce3d42f	-0.027811138
144	0xbe3629aa	-0.17789331
145	0xbed77266	-0.42079467
146	0xbe0bee13	-0.13665037
147	0xbe95f066	-0.29284972
148	0x3e9a6cd0	0.30161142
149	0x3dd6464e	0.10462628
150	0x3d473ce2	0.048642047
151	0x3e1c8d24	0.15288216
152	0xbd99c180	-0.0750761
153	0x3e113290	0.14179444
154	0x3cdbf69d	0.026850993
155	0x3e5a921d	0.213448
156	0xbda7e10f	-0.081972234
157	0xbe4ce062	-0.2000747
158	0xbd81c6c1	-0.063367374
159	0xbc82eecc	-0.015983008
160	0xbe50e9e8	-0.20401728
161	0x3e009274	0.12555867
162	0xbe5bd2e7	-0.21467172
163	0xbde2db81	-0.11077023
164	0xbea76292	-0.3269239
165	0xbe246b77	-0.1605662
166	0x3e811d1e	0.25217527
167	0x3e32c41f	0.17457627
168	0xbe984e29	-0.2974713
169	0xbcbc0c7f	-0.022955177
170	0x3d08a957	0.03336462
171	0xbe8bb2af	-0.27284762
172	0xbbcf8884	-0.0063334126
173	0x3ee0bd21	0.43894294
174	0xbe2eaf8a	-0.1705915
175	0xbe74406f	-0.23852704
176	0xbe822c74	-0.2542454
177	0xbe121d9b	-0.14269106
178	0x3d1dce41	0.038526777
179	0xbd95ffba	-0.073241666
180	0x3e4fc2d7	0.20289169
181	0xbe321142	-0.17389396
182	0x3d7982b4	0.060915664
183	0xbd920573	-0.071299456
184	0xbdd5c980	-0.10438824
185	0xbe27420d	-0.1633379
186	0x3e456801	0.19277956
187	0x3e9f85a2	0.3115664
188	0x3ec1cbee	0.37850899
189	0xbe4f6f47	-0.20257293
190	0xbc7b002f	-0.015319868
191	0x3dfbff62	0.1230457
192	0x3db78c8c	0.08962354
193	0x3e30fc67	0.17283784
194	0x3e7c55c5	0.24642093
195	0xbd97f03e	-0.074188694
196	0x3ed0e059	0.40796164
197	0x3ddf0e43	0.10891392
198	0xbf2f6e1b	-0.6852738
199	0xbe0c60f7	-0.13708864
200	0x3da3806f	0.07983481
201	0xbe28b601	-0.16475679
202	0xbe5275c4	-0.20552737
203	0xbcba6632	-0.022753809
204	0x3d98c441	0.074593075
205	0x3e8a33e3	0.2699271
206	0xbdaedb82	-0.085379615
207	0xbe8b43cc	-0.27200162
208	0x3eb74847	0.3579733
209	0xbcc39a99	-0.023877429
210	0xbda3a5f0	-0.079906344
211	0x3e7bd71d	0.24593778
212	0x3dcc38db	0.09971782
213	0x3ea8d133	0.32972106
214	0xbec49cc2	-0.38400847
215	0xbdca6765	-0.09883002
216	0xbd61876d	-0.055060793
217	0xbd7a5517	-0.061116304
218	0x3caeff23	0.021361893
219	0x3ddf380e	0.108993635
220	0x3e21dc39	0.15806665
221	0xbd3c44e9	-0.045964155
222	0x3e0e609e	0.13904044
223	0xbd5edd36	-0.054410182
224	0x3e9201ba	0.28516942
225	0xbdac61f4	-0.084171206
226	0xbc906397	-0.017625613
227	0xbdeb6210	-0.11493313
228	0xbf1a3308	-0.6023412
229	0xbe942998	-0.28937984
230	0xbd674cc5	-0.056469698
231	0xbdbb3653	-0.09141221
232	0xbe1794e0	-0.14802885
233	0x3e841e74	0.25804484
234	0x3e470ce7	0.19438516
235	0x3e59d5a2	0.212729
236	0xbf5acfd4	-0.8547337
237	0xbedd7163	-0.4325057
238	0xbe0c4dc7	-0.13701545
239	0x3e36ea99	0.1786293
240	0xbe129b1c	-0.14316982
241	0xbeccf459	-0.40030172
242	0x3e7ee097	0.24890362
243	0xbe903d8f	-0.28171965
244	0x3ec40cd6	0.38291043
245	0xbc2676ed	-0.01016019
246	0x3dfcda31	0.12346304
247	0xbf4e751d	-0.8064745
248	0xbd1270ae	-0.03575199
249	0xbda1c28f	-0.07898437
250	0x3e72d0ee	0.23712513
251	0x3e396f6b	0.18108909
252	0x3ea8b9e7	0.32954332
253	0x3db09ba9	0.0862344
254	0xbe305b8e	-0.17222425
255	0xbc768942	-0.015047373

sequential_1_1/dense_3_1/Add/ReadVariableOp:0 f4 [32]
0	0x3e7fa6e0	0.24966002
1	0x3e1ab54c	0.15108222
2	0x3f01dbca	0.50725996
3	0xbdf4be0e	-0.119503126
4	0xbdbb89fd	-0.091571786
5	0xbe4fb882	-0.20285228
6	0x3eb4b634	0.3529526
7	0x3f485185	0.7824939
8	0xbd2fc662	-0.042913802
9	0x3f3fb66f	0.74887747
10	0x3c5a4844	0.0133228935
11	0xbe48156c	-0.19539422
12	0x3f3b062e	0.73056304
13	0xbe281d9f	-0.1641755
14	0xbe88767d	-0.266529
15	0x3ec35e54	0.38157904
16	0x3e877227	0.2645428
17	0xbd283114	-0.04106243
18	0x3f24d41c	0.64386153
19	0x3f3e6ae5	0.7438186
20	0x3e2807ef	0.16409276
21	0x3e82aa7f	0.25520703
22	0x3f12427b	0.5713269
23	0x3e99a04c	0.3000511
24	0x3ed5476f	0.41656062
25	0x3ec9bb6e	0.3940081
26	0xbe0984f9	-0.13429631
27	0x3e2850ee	0.16437122
28	0x3ed1ca10	0.40974474
29	0x3f30b7e7	0.6903061
30	0x3f894a1e	1.0725744
31	0xbdf8941b	-0.12137624

sequential_1_1/conv2d_5_1/convolution/ReadVariableOp:0 f4 [32, 64, 2, 2]
0	0xbe845f9e	-0.258542
1	0xbdd42ef3	-0.10360517
2	0x3ce4f85e	0.027950462
3	0xbd837094	-0.06417957
4	0xbf431c7c	-0.7621534
5	0xbf1f566d	-0.6224125
6	0xbeee0610	-0.46489
7	0xbf103736	-0.56334245
8	0x3e2fac94	0.17155677
9	0xbe2a2071	-0.16613938
10	0xbe49a831	-0.19693066
11	0xbeade535	-0.33963934
12	0xbc430ae1	-0.011904449
13	0x3dd4f23d	0.10397766
14	0x3ec4fdb1	0.384748
15	0x3e28b5d1	0.16475607
16	0xbe8b5a22	-0.27217203
17	0x3e069272	0.13141802
18	0xbecc7290	-0.39931154
19	0x3ddd4650	0.10804427
20	0xbd92becc	-0.07165298
21	0xbe0d9fe5	-0.13830526
22	0xbecb9be1	-0.39767364
23	0xbec35e06	-0.38157672
24	0x3ee27e44	0.44236958
25	0x3d9c3739	0.076277204
26	0xbdf81b5c	-0.121145934
27	0xbe4efc41	-0.20213415
28	0x3d1bcb7a	0.038035847
29	0xbe8fbf5a	-0.28075677
30	0x3d0e2052	0.03469879
31	0xbe128799	-0.14309539
32	0x3dee6981	0.11641217
33	0x3dd13f84	0.10217193
34	0x3d5adce5	0.053433318
35	0x3cdc9f48	0.02693142
36	0xbf3604fd	-0.7110136
37	0xbec41481	-0.38296893
38	0xbe3a3554	-0.18184406
39	0x3e1e8ed3	0.1548417
40	0xbea92af6	-0.3304059
41	0xbb0b141a	-0.0021221698
42	0xbf469c6c	-0.7758243
43	0xbf0612f0	-0.52372646
44	0xbda8b850	-0.0823828
45	0xbd04bbdd	-0.032405723
46	0x3dfc1052	0.123078
47	0x3dc84255	0.09778277
48	0x3ec7169c	0.38884437
49	0x3e80e8c0	0.25177574
50	0xbe7a6dac	-0.24455899
51	0xbedefea7	-0.4355366
52	0x3d99c8aa	0.07508977
53	0xbe63d790	-0.222502
54	0x3d9ffe0b	0.07812127
55	0x3e0cd4a8	0.13752997
56	0xbcd745d4	-0.026278414
57	0x3d1c0888	0.038094074
58	0xbe0111b5	-0.12604411
59	0xbe51a89f	-0.2047448
60	0x3e95cb26	0.29256552
61	0x3e99b6ff	0.30022427
62	0xbe4caf64	-0.19988781
63	0xbe8a82c6	-0.27052897
64	0x3dd9e821	0.10639978
65	0xbd125be8	-0.03573218
66	0xbdd4e766	-0.10395698
67	0x3db99faa	0.09063657
68	0xbe7061c8	-0.234748
69	0xbd3cf4f0	-0.046132028
70	0x3c2fb177	0.010723463
71	0xbec0a9a0	-0.37629414
72	0xbccaaadf	-0.02473968
73	0xbde677c9	-0.11253316
74	0xbdf8dc19	-0.12151355
75	0xbc8e4552	-0.017367039
76	0xbdc553b7	-0.09635108
77	0xbc6ee5af	-0.014581128
78	0x3dca9b0d	0.09892855
79	0xbd18cfd2	-0.037307568
80	0xbe28bb82	-0.16477779
81	0x3e4049a4	0.18778092
82	0xbf12cb49	-0.5734144
83	0xbe8101b4	-0.25196612
84	0xbe269085	-0.16266067
85	0x3e5d912e	0.21637413
86	0xbf2c05cf	-0.67196363
87	0x3c117b0b	0.008879433
88	0xbe2cb9a4	-0.16867691
89	0xbe8ba4d0	-0.2727418
90	0x3ddffc31	0.109367736
91	0xbe4ac822	-0.19802907
92	0x3c80f7af	0.015743105
93	0xbd85f18d	-0.06540213
94	0x3dab0a11	0.083515294
95	0x3e000e39	0.12505426
96	0x3d31d4ec	0.04341595
97	0xbe2d4169	-0.16919483
98	0xbf0eea93	-0.5582668
99	0xbf3200b6	-0.69532335
100	0x3de4bec3	0.111691974
101	0x3e6325ce	0.2218239
102	0xbdf06dd0	-0.11739695
103	0x3c83daa1	0.016095461
104	0xbf16669f	-0.5875034
105	0xbdddc2e6	-0.108281896
106	0x3d1282d5	0.035769302
107	0xbe97e45c	-0.29666412
108	0x3dbe7a30	0.09300649
109	0x3af6faed	0.0018843092
110	0x3dcc7432	0.099831
111	0xbd45efcd	-0.048324395
112	0xbe099590	-0.1343596
113	0x3e2e4ff8	0.17022693
114	0x3d7dfca8	0.06200853
115	0x3f06eae1	0.52702147
116	0x3d815355	0.063147224
117	0xbdc5409e	-0.096314654
118	0x3e4198ee	0.18905994
119	0xbe51b879	-0.20480527
120	0xbea0e33e	-0.31423372
121	0xbef8a8d8	-0.48566318
122	0x3e084cd6	0.1331056
123	0x3ef38432	0.47561795
124	0xbef45c03	-0.4772645
125	0xbd214a78	-0.03937766
126	0x3ce245ea	0.027621228
127	0xbec07872	-0.37591892
128	0xbbd79ed3	-0.0065802126
129	0x3e2a80ea	0.1665074
130	0xbc870446	-0.01648153
131	0x3ce11ef7	0.027480586
132	0xbe5e8d20	-0.21733522
133	0xbf3cab6f	-0.73699087
134	0x3e37477d	0.17898364
135	0x3e1c6a9f	0.15275048
136	0x3e550b2d	0.20805044
137	0x3e132e5e	0.14373156
138	0x3d9d139c	0.07669756
139	0xbde5683a	-0.1120152
140	0x3de15660	0.11002803
141	0xbdbc3bb4	-0.09191075
142	0x3e86cd69	0.2632859
143	0xbea3b868	-0.31976628
144	0xbd001a06	-0.031274818
145	0x3e3fc703	0.1872826
146	0xbe707eae	-0.23485824
147	0xbe0d2916	-0.13785204
148	0xbdb9d67b	-0.09074112
149	0xbd5372ee	-0.051623277
150	0x3df1f80e	0.11814891
151	0x3e04f106	0.12982568
152	0x3e01af12	0.1266444
153	0x3d9d03a1	0.07666708
154	0xbd47a1b6	-0.048738204
155	0x3b4d088a	0.0031285607
156	0xbe18fcbc	-0.1494016
157	0x3d23da6f	0.040003236
158	0x3e00dcd2	0.12584236
159	0x3eab7d9d	0.33494273
160	0xbd9a9ccb	-0.07549437
161	0x3e0fecce	0.14055178
162	0x3e226b8b	0.15861337
163	0x3de76f71	0.11300553
164	0xbea9e96e	-0.33185905
165	0xbeb1066f	-0.3457522
166	0x3eb85d18	0.36008525
167	0x3d9b3160	0.07577777
168	0x3d8c3b1c	0.06847212
169	0xbedc8bf7	-0.43075535
170	0xbd9dbc48	-0.077019274
171	0xbecda09a	-0.40161592
172	0xbbad2d9f	-0.0052849795
173	0x3dfb4954	0.122698456
174	0xbd64ebcf	-0.055888947
175	0x3db6a908	0.08918959
176	0x3dc77b4e	0.097403154
177	0x3c17abd9	0.00925728
178	0xbbe86dbc	-0.0070931595
179	0x3d0e5b1f	0.03475487
180	0xbe4f7863	-0.20260768
181	0xbcb36c8c	-0.021902345
182	0xbe372c1e	-0.17887923
183	0xbe7b5786	-0.24545106
184	0x3e29e4b8	0.16591156
185	0x3d84322f	0.06454884
186	0x3df477d6	0.119369194
187	0xbe0ff99f	-0.14060067
188	0xbdea66ce	-0.1144539
189	0xbd141d80	-0.036160946
190	0x3c1c61e9	0.009544828
191	0x3d70e62e	0.058813266
192	0xbd1fb03f	-0.03898644
193	0x3d8c81b0	0.068606734
194	0x3c839692	0.016063008
195	0x3b8c1bcb	0.004275774
196	0x3e470d16	0.19438586
197	0xbc425d76	-0.011863103
198	0x3c932eaf	0.017966596
199	0xbe225256	-0.15851721
200	0x3e468983	0.19388394
201	0x3ecda95e	0.4016828
202	0xbda1a50e	-0.0789281
203	0x3e2dd62a	0.16976228
204	0xbe8abeea	-0.2709878
205	0xbed1ad6d	-0.40952626
206	0xbd607176	-0.054795705
207	0xbec99738	-0.39373183
208	0x3de8e812	0.11372389
209	0x3e865c12	0.2624212
210	0xbea6338c	-0.32461202
211	0xbe201dfe	-0.15636441
212	0xbe711028	-0.2354132
213	0x3e955b2b	0.29171118
214	0xbf030fd6	-0.5119604
215	0xbe8a4130	-0.2700286
216	0x3dc00eb6	0.09377806
217	0x3ddc6872	0.10762109
218	0x390decdb	0.00013535043
219	0x3d7e41cb	0.062074464
220	0xbf4d1310	-0.8010721
221	0xbf4ff567	-0.8123383
222	0x3ecc758c	0.3993343
223	0x3f1965d1	0.59920985
224	0xbcdca1f8	-0.026932701
225	0xbeb51253	-0.35365543
226	0x3ce0fccb	0.027464291
227	0xbe6bbb3f	-0.23020647
228	0xbde69f99	-0.112609096
229	0x3da209ec	0.07912049
230	0xbe5bfb65	-0.21482618
231	0x3d6cac2b	0.05778138
232	0xbe12a035	-0.14318927
233	0xbe179918	-0.14804494
234	0x3e5908e3	0.21194796
235	0xbdf39a66	-0.118946835
236	0x3c9b5ff4	0.018966652
237	0x3de3d9fd	0.11125562
238	0xbd77f4a6	-0.06053605
239	0x3d01d9c4	0.031701818
240	0xbe5c90a2	-0.21539548
241	0xbd462915	-0.048379023
242	0xbe9860af	-0.29761264
243	0xbb2c2263	-0.0026265613
244	0xbe25221e	-0.16126296
245	0xbe039a08	-0.12851727
246	0xbdfbad91	-0.122889645
247	0xbe9ede8d	-0.31029168
248	0xbe1289bd	-0.14310355
249	0x3d2833c7	0.041065004
250	0x3eb07aae	0.34468597
251	0x3e6d6c1a	0.23185769
252	0xbd5ede76	-0.054411374
253	0xbe4ef0d1	-0.20209052
254	0xbea1ff9e	-0.31640333
255	0x3dc421c4	0.09576753

sequential_1_1/conv2d_5_1/Reshape:0 f4 [32]
0	0x3e1478fa	0.14499274
1	0xbe29577e	-0.16537282
2	0x3e26c6d9	0.16286792
3	0xbdad4f18	-0.084623516
4	0xbe06f3b2	-0.131789
5	0xbdff2b41	-0.12459422
6	0xbd7e8598	-0.062139124
7	0x3eb66799	0.35625914
8	0xbdc506f9	-0.096204706
9	0xbed8c2d6	-0.42336148
10	0x3d834989	0.0641051
11	0x3e4db193	0.2008727
12	0xbc5ed77e	-0.013601182
13	0x3d873541	0.06601954
14	0x3f584758	0.8448386
15	0x3e2e59d4	0.17026454
16	0x3f1e97f9	0.6195064
17	0xbe5225a1	-0.20522167
18	0x3f30b8a9	0.6903177
19	0xbdc409d0	-0.09572184
20	0x3eea2184	0.45728695
21	0x3ea10898	0.3145187
22	0x3f5b9709	0.85777336
23	0x3e82ddf8	0.25559974
24	0x3eef4f68	0.4674027
25	0xbe068461	-0.13136436
26	0xbe037933	-0.12839203
27	0xbd72ce55	-0.059278805
28	0x3efb5049	0.4908469
29	0xbc78c68d	-0.015184057
30	0x3e6f6811	0.23379542
31	0x3c7a1f6d	0.015266282

sequential_1_1/conv2d_4_1/convolution/ReadVariableOp:0 f4 [64, 128, 2, 2]
0	0xbb786df6	-0.0037907339
1	0xbe7124d7	-0.2354921
2	0x3b84c7f0	0.0040521547
3	0x3bfd11ee	0.0077230847
4	0xbe3521e8	-0.17688715
5	0x3d6a1b7b	0.057155114
6	0xbc91ec14	-0.017812766
7	0xbe11e137	-0.14246069
8	0x3d87ade9	0.066249676
9	0xbcf5e23a	-0.0300151
10	0xbd57c637	-0.052679267
11	0x3d95449d	0.072884776
12	0x3d071dff	0.03298759
13	0xbd4401d5	-0.04785331
14	0x3c8f09be	0.0174607
15	0xbd526932	-0.051369853
16	0xbea19f12	-0.31566674
17	0xbe8a88bc	-0.27057445
18	0xbdc6c91a	-0.09706326
19	0x3dc7e4c6	0.09760432
20	0xbe20ff75	-0.15722449
21	0xbea2d69d	-0.31804362
22	0xbd4dfc6a	-0.05028955
23	0xbee36a02	-0.44416815
24	0x3e308246	0.17237195
25	0x3e43a7bd	0.19106956
26	0x3ec369dc	0.38166702
27	0xbd300681	-0.042974953
28	0xbd8ada6f	-0.06779944
29	0x3dd78bf3	0.1052474
30	0xbdd22b50	-0.102621675
31	0xbc881202	-0.01661015
32	0xbe8a8439	-0.27054003
33	0xbd9f2ff5	-0.07772819
34	0xbe3a7533	-0.1820877
35	0x3dc2aa2e	0.095051154
36	0xbee2c9be	-0.44294542
37	0xbe007c0a	-0.12547317
38	0x3e0ef4d8	0.13960588
39	0xbe4382a9	-0.19092812
40	0xbcb1b16e	-0.02169105
41	0xbdb0b2a1	-0.08627821
42	0x3d11081e	0.03540813
43	0xbdd24541	-0.102671154
44	0xbd920378	-0.07129568
45	0xbca01000	-0.01953888
46	0x3cfcf126	0.030876707
47	0xbd8a2c3a	-0.06746717
48	0xbebcda27	-0.36885187
49	0xbf3be336	-0.7339357
50	0x3da88b5c	0.08229706
51	0xbdf046a3	-0.11732223
52	0x3e395e5d	0.18102403
53	0xbee8856a	-0.45414287
54	0xbf11983d	-0.5687292
55	0xbdb24699	-0.08704872
56	0x3e126bce	0.14298937
57	0x3d263076	0.04057356
58	0x3e189b71	0.14903046
59	0x3e5dca0c	0.21659106
60	0xbe0932b4	-0.13398248
61	0xbeb98699	-0.36235502
62	0xbe60e5b1	-0.2196262
63	0xbd84f367	-0.06491738
64	0xbdffb87a	-0.12486358
65	0xbe6f4acc	-0.23368376
66	0xbda263e7	-0.07929211
67	0xbcb4112b	-0.021980843
68	0xbf18eb79	-0.597343
69	0xbf35c200	-0.70999146
70	0xbe51a765	-0.20474012
71	0xbdbe6492	-0.09296526
72	0xbd7f4231	-0.062318984
73	0xbe2d118b	-0.16901223
74	0xbeee6494	-0.4656111
75	0xbe828815	-0.25494447
76	0x3e9a0ac7	0.30086347
77	0xbdcdb036	-0.10043375
78	0xbd98c40d	-0.07459269
79	0xbc6a3383	-0.014294508
80	0xbd3034f7	-0.04301926
81	0xbda79dbd	-0.08184383
82	0xbe85c175	-0.26124159
83	0x3e58f355	0.21186574
84	0x3d51b090	0.051193774
85	0xbd4adda7	-0.04952779
86	0xbdb986ea	-0.09058936
87	0xbd81b87d	-0.063340165
88	0x3db19f7d	0.08672998
89	0xbbe91491	-0.0071130474
90	0xbc80ac78	-0.01570724
91	0x3cfb6241	0.0306865
92	0xbee1a7a6	-0.44073218
93	0xbeecaee0	-0.4622717
94	0x3eb268c5	0.34845558
95	0x3e9e8513	0.30960903
96	0xbed13d20	-0.40866947
97	0xbec02b38	-0.37532973
98	0xbc8c22df	-0.017106472
99	0xbe1e2463	-0.15443568
100	0xbe7b0f57	-0.2451757
101	0xbf05ce09	-0.5226751
102	0x3e376b58	0.17912042
103	0x3eb63aae	0.35591644
104	0x3dafdd05	0.08587078
105	0xbd170e9f	-0.036879178
106	0xbbfc8b33	-0.0077070235
107	0xbb1470e8	-0.0022650305
108	0xbe2ced70	-0.1688745
109	0x3d5b6ccf	0.053570565
110	0x3de19001	0.11013795
111	0xbc6159db	-0.013754333
112	0xbd6e7f56	-0.058226906
113	0x3d8e9cfa	0.06963535
114	0x3b533d60	0.0032232627
115	0xbab257cc	-0.0013606488
116	0x3e489a5e	0.19590136
117	0x3d87e544	0.06635526
118	0x3daf6b8c	0.08565435
119	0xbdd75e5d	-0.10516045
120	0xbea89643	-0.3292714
121	0x3da502e6	0.080571935
122	0x39e2565a	0.00043170416
123	0xbe8c1bc9	-0.27364948
124	0x3df53d22	0.11974551
125	0x3d22709d	0.039658178
126	0xbe47039a	-0.19434968
127	0xbe443545	-0.19160946
128	0x3d6586a5	0.05603661
129	0x3e627f99	0.22118987
130	0x3e1f2d01	0.15544511
131	0x3e9a370c	0.30120122
132	0x3e399bf5	0.18125899
133	0x3d490168	0.049073607
134	0x3e604a49	0.21903338
135	0x3ded1ea2	0.11578108
136	0x3ded2ee9	0.11581213
137	0x3e3f33c6	0.18672094
138	0x3b3b2919	0.0028558432
139	0x3dd6f343	0.10495617
140	0xbc1dcc0f	-0.009631171
141	0xbeace106	-0.3376543
142	0x3cb9b7f3	0.022670722
143	0xbc928625	-0.01788623
144	0xbd98e577	-0.07465642
145	0xbdd5c447	-0.104378276
146	0xbbe4a438	-0.006977584
147	0xbd7fbc82	-0.062435634
148	0xbde286ab	-0.11060842
149	0xbdf9fb1f	-0.12206101
150	0xbde292da	-0.11063166
151	0xbd3778db	-0.04479299
152	0xbd6bb78d	-0.057548095
153	0x3e3d41b8	0.18482101
154	0xbc64b096	-0.013958117
155	0xbc5693dc	-0.013096776
156	0xbd69b9e7	-0.057062056
157	0xbe6379bb	-0.22214405
158	0x3e1b3b55	0.15159352
159	0x3dcf9c09	0.10137183
160	0x3ebc566c	0.36784685
161	0x3d49c64d	0.04926138
162	0xbe4f41e4	-0.20239979
163	0x3f2c7c1e	0.6737689
164	0x3dd16bbf	0.10225629
165	0x3c2044c7	0.009782023
166	0x3d99bf4f	0.07507192
167	0x3d937e39	0.072018094
168	0xbc855477	-0.016275628
169	0xbd0a70e2	-0.03379906
170	0xbd7f0884	-0.06226398
171	0xbd37238c	-0.044711635
172	0xbc2fe218	-0.010735057
173	0xbeb57090	-0.3543744
174	0xbd979f70	-0.07403457
175	0x3d2861ef	0.04110902
176	0xbd0a324b	-0.03373937
177	0x3da84931	0.08217085
178	0xbc8437c3	-0.01613987
179	0xbcc88f78	-0.024482474
180	0xbec3c100	-0.38233185
181	0xbe8e57a3	-0.27801237
182	0x3e9422b3	0.28932723
183	0x3f04771f	0.51744264
184	0x3e2806e9	0.16408886
185	0x3e7c13c2	0.24616912
186	0x3e462d0e	0.19353124
187	0x3dbe76a4	0.09299973
188	0xbd958c07	-0.07302099
189	0xbd87823b	-0.06616636
190	0x3ee0e166	0.43921965
191	0x3ec34254	0.38136542
192	0xbb23d7ee	-0.002500053
193	0x3cd5e281	0.026108982
194	0xbd80ae34	-0.062832266
195	0xbc07dd0c	-0.008292448
196	0x3e71e487	0.23622333
197	0x3e98081b	0.29693684
198	0xbebf7f22	-0.37401682
199	0xbe8e437e	-0.27785867
200	0x3d9ec745	0.077528514
201	0xbe943b50	-0.28951502
202	0x3dd781bf	0.10522794
203	0xbe575417	-0.21028171
204	0xbe1829ea	-0.14859739
205	0xbe161e78	-0.1466006
206	0x3e302d6d	0.17204829
207	0x3e816e1e	0.25279325
208	0xbe8760df	-0.26441094
209	0xbeacf93a	-0.33783895
210	0x3eb37dcc	0.35056913
211	0x3edf0b9b	0.43563542
212	0xbdc199f3	-0.094531916
213	0xbbaf4d17	-0.005349766
214	0x3d51ebdf	0.051250335
215	0x3d3d8eb3	0.046278667
216	0xbf176c52	-0.5914966
217	0xbf121e8b	-0.57077855
218	0xbdfe1f0c	-0.124082655
219	0x3e0b75c7	0.13619147
220	0x3d912448	0.07086998
221	0x3d51511a	0.051102735
222	0xbdaf5158	-0.08560437
223	0x3d867199	0.06564636
224	0xbded8fd9	-0.115997024
225	0x3dd05c7e	0.101738915
226	0x3dda7699	0.10667152
227	0x3e3dc587	0.18532382
228	0xbe3018ce	-0.17196962
229	0xbe308f98	-0.17242277
230	0x3e335ec3	0.17516617
231	0x3d186781	0.037208084
232	0x3e5c90c2	0.21539596
233	0x3e09d764	0.13461071
234	0x3e0f9936	0.14023289
235	0x3daded25	0.08492497
236	0x3e30379a	0.1720871
237	0xbed5f47f	-0.41788098
238	0xbb988256	-0.004654209
239	0x3d034250	0.032045662
240	0xbb831078	-0.003999766
241	0x3e1200e9	0.1425816
242	0xbd8e8825	-0.06959561
243	0x3ccce766	0.025012683
244	0xbd319e77	-0.043364014
245	0xbd1f3968	-0.038873106
246	0x3c92a5c2	0.017901305
247	0x3d5cfcf9	0.05395219
248	0xbd89a2b7	-0.067204885
249	0xbd4fe1b4	-0.050752357
250	0xbda8519c	-0.08218691
251	0xbd189a80	-0.037256718
252	0xbe677fa9	-0.22607292
253	0x3d928876	0.07154934
254	0xbf105186	-0.56374395
255	0xbf145d14	-0.57954526

sequential_1_1/conv2d_4_1/Reshape:0 f4 [64]
0	0xbe0a4939	-0.13504495
1	0x3f0f413a	0.559589
2	0xbe950a3b	-0.29109368
3	0xbe629194	-0.22125846
4	0x3db2a536	0.08722918
5	0x3daa876e	0.083266124
6	0xbb640b21	-0.0034796672
7	0x3e95b034	0.29235995
8	0x3acdd5d2	0.0015703982
9	0x3e9dc19e	0.3081178
10	0x3e751cfd	0.2393684
11	0xbd6dee5d	-0.05808865
12	0x3da6a8d7	0.081376724
13	0xbdec010c	-0.11523637
14	0xbec765c3	-0.38944826
15	0xbe684c19	-0.22685279
16	0xbd8aac39	-0.0677113
17	0xbe6c5492	-0.23079136
18	0x3d0bc0e6	0.03411951
19	0xbd7828ed	-0.060585905
20	0x3da11fae	0.078673705
21	0x3e309a95	0.17246468
22	0x3da11d6f	0.07866942
23	0xbe203cc1	-0.15648176
24	0x3dae77d2	0.08518948
25	0xbea89dc3	-0.32932863
26	0x3ea1495f	0.3150129
27	0xbe8367f2	-0.2566524
28	0x3e333b78	0.17503154
29	0xbc79f82a	-0.015256921
30	0x3e57e86e	0.21084759
31	0x3e9dd526	0.30826682
32	0xbdf991b5	-0.121859945
33	0x3dd47179	0.10373206
34	0xbe33bb03	-0.17551808
35	0x3e9933a8	0.29922223
36	0xbe964307	-0.29348013
37	0xbeb6fb79	-0.35738733
38	0x3e593b2e	0.21213982
39	0x386b2cc0	5.6070043e-05
40	0xbde19100	-0.11013985
41	0x3d989a8a	0.07451351
42	0x3d24395b	0.04009376
43	0xbd976d5f	-0.07393908
44	0xbd631a20	-0.055444837
45	0x3dbe9ec0	0.09307623
46	0xbd5bf343	-0.05369879
47	0xbd6c54bd	-0.057698
48	0xbd30c348	-0.043154985
49	0x3d575ef6	0.052580796
50	0x3b7f76db	0.0038980755
51	0xbedf8e8f	-0.4366345
52	0x3b506602	0.0031799083
53	0x3e57d0a0	0.21075678
54	0xbdadb4fb	-0.08481785
55	0x3ead85cd	0.33891144
56	0x3e762a8f	0.24039672
57	0xbb03e59d	-0.0020125874
58	0x3d32be8e	0.04363876
59	0xbdcab3ce	-0.09897576
60	0x3c9e57a7	0.019328905
61	0xbdbfe1f4	-0.09369269
62	0xbc3c1572	-0.011479722
63	0x3e33a843	0.17544656

sequential_1_1/conv2d_3_1/convolution/ReadVariableOp:0 f4 [128, 3, 2, 2]
0	0x3df6f653	0.12058701
1	0xbdd53678	-0.1041078
2	0x3d86001f	0.06542992
3	0xbd49541c	-0.04915248
4	0x3dc8705f	0.09787058
5	0xbe9233dd	-0.28555194
6	0x3e9b54d8	0.30338168
7	0xbe3be3e2	-0.18348649
8	0x3e02b9b3	0.12766151
9	0xbed40323	-0.41408643
10	0x3ec585b4	0.3857857
11	0xbda834b1	-0.08213175
12	0xbc928d23	-0.017889565
13	0xbda08601	-0.07838059
14	0x3e704dbd	0.23467155
15	0xbdfe7f61	-0.12426639
16	0x3c87dd64	0.01658506
17	0xbe077272	-0.13227251
18	0x3e895706	0.26824206
19	0xbe2c5e25	-0.16832788
20	0xbdead3e8	-0.11466199
21	0xbeac56b0	-0.33659887
22	0x3e8ca6fc	0.2747115
23	0xbe3bbda9	-0.18334068
24	0xbd524f73	-0.0513453
25	0xbc49cfb6	-0.012317589
26	0xbc807066	-0.015678596
27	0x3d2e0357	0.042483654
28	0xbdf3af53	-0.11898675
29	0xbdc841b9	-0.097781606
30	0x3b2c454e	0.0026286426
31	0xbe0fc486	-0.14039811
32	0xbcda41b6	-0.026642662
33	0xbd832bdf	-0.06404852
34	0xbad570c5	-0.0016284218
35	0xbdfe7f5d	-0.12426636
36	0xbda207ef	-0.079116695
37	0x3bdd4601	0.00675273
38	0x3adb408f	0.0016727614
39	0x3c89fc46	0.016843926
40	0xbe31246c	-0.1729905
41	0xbc9448fd	-0.01810121
42	0xbca901bb	-0.020630708
43	0xba3a85c3	-0.0007115269
44	0xbe5a63cf	-0.21327136
45	0x3d261b13	0.040553164
46	0xbdb5e49d	-0.08881495
47	0x3da723b2	0.08161105
48	0xbca6245d	-0.020281011
49	0xbd5745ca	-0.05255679
50	0xbeb77c84	-0.35837185
51	0xbe94bfd4	-0.29052603
52	0x3db02ab8	0.08601898
53	0x3e0b2906	0.13589868
54	0xbe912e95	-0.28355852
55	0xbea19bee	-0.31564277
56	0x3eb3bd21	0.3510523
57	0x3ea3c966	0.31989592
58	0xbcce946d	-0.02521726
59	0xbb0b3779	-0.002124278
60	0xbf853638	-1.0407171
61	0xbf2af2c0	-0.6677666
62	0xbf82257e	-1.0167692
63	0xbf831d36	-1.024329
64	0xbef21a46	-0.4728567
65	0xbe8a2be4	-0.2698661
66	0xbed24ad3	-0.4107271
67	0xbf10ac9d	-0.56513387
68	0xbb58f362	-0.0033104052
69	0xbc4c3152	-0.012462931
70	0xbe12b2b1	-0.14325978
71	0xbd38a418	-0.045078367
72	0xbeda9dd1	-0.4269853
73	0x3e05d1b2	0.13068274
74	0x3df8c1ec	0.12146363
75	0x3e93fb4d	0.28902665
76	0xbed65867	-0.4186432
77	0xbe060a33	-0.13089828
78	0x3daee94d	0.08540592
79	0x3e81f262	0.25380236
80	0xbf0422ee	-0.516158
81	0x3e06658d	0.13124676
82	0x3dfc0c5a	0.123070434
83	0x3ecbbdb0	0.39793158
84	0xbe585e3a	-0.21129695
85	0x3e092d04	0.13396078
86	0xbe5f565a	-0.21810284
87	0x3ea7f07b	0.3280066
88	0xbe6652bd	-0.224925
89	0xbd2f1cbc	-0.042752013
90	0xbe5a1fa3	-0.21301131
91	0x3eac3591	0.33634618
92	0xbe56cb32	-0.2097595
93	0xbd41a938	-0.04728052
94	0xbe0a0fd2	-0.13482597
95	0x3e8b5fd7	0.27221557
96	0x3e5480d1	0.20752265
97	0xbecdd6c3	-0.40202913
98	0xbe53da5e	-0.20688769
99	0xbdefe011	-0.11712659
100	0x3e7639cc	0.24045485
101	0xbecc7b50	-0.3993783
102	0xbe6d09d5	-0.23148282
103	0xbe971919	-0.29511335
104	0x3ec24c30	0.3794875
105	0xbe0a2555	-0.13490804
106	0x3d9282d6	0.07153861
107	0xbe0cf9ea	-0.1376721
108	0xbde77b40	-0.11302805
109	0x3e162b5f	0.14664982
110	0xbe8e343e	-0.27774233
111	0x3e4d68c7	0.200595
112	0xbe428d21	-0.18999149
113	0x3e4b1dde	0.19835612
114	0xbed3d165	-0.41370693
115	0x3eab64c8	0.33475327
116	0xbe207fc3	-0.15673737
117	0x3e200ba7	0.15629445
118	0xbe9c8c84	-0.30575955
119	0x3ea42dad	0.32066098
120	0xbda18dbd	-0.078883626
121	0xbd531bf6	-0.051540338
122	0x3dc710cf	0.09720003
123	0xbce41ddf	-0.027846275
124	0xbcd039a0	-0.025418103
125	0x3d7a19a0	0.061059594
126	0xbd92816c	-0.071535915
127	0x3d42581c	0.04744731
128	0x3d49bab9	0.04925034
129	0xbce9a12c	-0.028519236
130	0xbdf20ccc	-0.11818847
131	0xbda991f4	-0.082797915
132	0xbd34b3c8	-0.044116765
133	0x3d0889ab	0.033334415
134	0xbe1c497e	-0.1526241
135	0x3c304eb5	0.010760953
136	0xbc50d5e8	-0.012746312
137	0xbe18619e	-0.14880988
138	0x3c635fb6	0.0138778
139	0xbd33578d	-0.043784667
140	0xbd2cbe5e	-0.042173736
141	0x3e06b132	0.13153532
142	0x3dcf1838	0.10112041
143	0x3d1d2fed	0.038375784
144	0xbd909223	-0.07059123
145	0x3e4e46ee	0.20144245
146	0xbef3ab64	-0.47591698
147	0xbe86272d	-0.26201764
148	0xbdc9ed0e	-0.09859668
149	0x3ddb9543	0.10721829
150	0xbe90e231	-0.2829757
151	0xbe8edeb6	-0.2790429
152	0x3d7cfa70	0.061762273
153	0x3e2dfb0b	0.16990297
154	0xbeea223c	-0.45729244
155	0xbebf42fb	-0.3735579
156	0x3e3807b5	0.1797169
157	0xbe0a63f1	-0.13514687
158	0xbe1514b6	-0.14558682
159	0xbe9133fc	-0.28359973
160	0x3ebf6bec	0.37387025
161	0xbe04a859	-0.12954845
162	0xbe354d51	-0.17705275
163	0xbebe0cb3	-0.37119064
164	0x3ed5acfd	0.41733542
165	0x3d71262f	0.058874305
166	0x3dbab1ba	0.0911593
167	0xbeb3ee79	-0.35142878
168	0x3ea7f7c2	0.32806212
169	0x3e89122e	0.26771683
170	0x3e273288	0.1632787
171	0x3e4367ba	0.19082537
172	0xbf120dae	-0.57052124
173	0xbf01eca1	-0.5075169
174	0xbea0b574	-0.31388438
175	0xbeefff71	-0.46874574
176	0x3dffad2a	0.124842
177	0x3e5c60bc	0.21521276
178	0x3e06532a	0.13117662
179	0x3e28db73	0.16489963
180	0x3e9fb2ff	0.3119125
181	0x3e68f719	0.2275051
182	0xbdb0d819	-0.08634967
183	0xbeb84804	-0.35992444
184	0xbe551d44	-0.20811945
185	0xbe7ef2af	-0.24897264
186	0xbe6a9daa	-0.22911707
187	0xbe1f8363	-0.15577464
188	0x3cac0eaf	0.021003095
189	0xbce9c2a0	-0.028535187
190	0xbda65106	-0.08120923
191	0xbb07a041	-0.0020694884
192	0x3e681df6	0.22667679
193	0x3e3e905a	0.18609753
194	0xbe97369e	-0.29533857
195	0xbe100bd6	-0.14067015
196	0x3ea812fe	0.3282699
197	0x3d44f82d	0.04808824
198	0xbe88e52b	-0.2673734
199	0xbd9334d2	-0.07187809
200	0x3e8cd89e	0.27509016
201	0x3d21dbc2	0.039516218
202	0xbecae09b	-0.39624485
203	0xbc3e1191	-0.011600868
204	0x3e77496a	0.24149099
205	0xbe5b690a	-0.21426788
206	0x3e57c4ec	0.21071213
207	0xbe6c6cd8	-0.23088396
208	0x3e86f91a	0.26361924
209	0xbe8894ee	-0.26676124
210	0x3e60c21a	0.21949044
211	0xbe9ea675	-0.30986372
212	0x3e9be947	0.30451414
213	0xbe842909	-0.25812557
214	0x3e4a6868	0.1976639
215	0xbe6af1c7	-0.22943793
216	0xbe85f36a	-0.26162273
217	0xbeafb325	-0.34316364
218	0x3d0ac6b0	0.03388089
219	0xbcacd464	-0.02109737
220	0x3e4e974f	0.20174907
221	0x3d796f3d	0.0608971
222	0x3efb5d15	0.49094453
223	0x3ea0f7a1	0.31438926
224	0xbefec9a0	-0.49763203
225	0xbee8445f	-0.45364663
226	0xbe5cd4d1	-0.21565558
227	0xbe438116	-0.19092211
228	0x3ea253b8	0.31704497
229	0x3d72e91a	0.059304334
230	0xbe98e9fa	-0.2986601
231	0xbedeb20d	-0.43495217
232	0x3e899b95	0.26876512
233	0xbd2482fb	-0.040163975
234	0xbd979ed6	-0.074033424
235	0xbe519729	-0.2046782
236	0xbd6bdb14	-0.057581976
237	0xbd3b27b5	-0.045692164
238	0x3d0c644a	0.03427533
239	0x3e283637	0.16426931
240	0xbe60ff4e	-0.21972391
241	0xbe829663	-0.2550536
242	0xbec74983	-0.38923272
243	0xbec942be	-0.39308733
244	0xbdafef8c	-0.08590612
245	0xbd763bca	-0.060115613
246	0xbb10a6ad	-0.0022072003
247	0x3db7a71d	0.08967421
248	0x3e8ab9de	0.2709493
249	0x3e8a422f	0.2700362
250	0x3e6eca1f	0.2331929
251	0x3e961da9	0.29319504
252	0xbdcea6b3	-0.10090389
253	0xbce037df	-0.027370391
254	0xbdc1079b	-0.09425279
255	0xbda064a1	-0.078316934

sequential_1_1/conv2d_3_1/Reshape:0 f4 [128]
0	0x3babdee4	0.0052450765
1	0x3dd658a9	0.10466129
2	0xbc993e1b	-0.018706372
3	0xbdbdda72	-0.09270181
4	0xbb0ed4d5	-0.0021794338
5	0x3e6f7296	0.23383555
6	0xbe36a207	-0.17835246
7	0x3d09426a	0.033510603
8	0x3e140e74	0.14458638
9	0xbb87a243	-0.004139216
10	0xbd432e5f	-0.047651645
11	0xbe780a26	-0.24222621
12	0x3e185639	0.14876641
13	0x3b1ce7c6	0.0023941859
14	0xbd3c8d10	-0.046032965
15	0x3e1e40df	0.15454434
16	0xbc465af6	-0.012106648
17	0xbab27435	-0.0013614955
18	0x3cc580b2	0.024109218
19	0x3dce2133	0.10064926
20	0xbe67bcf4	-0.22630674
21	0xbc8c5951	-0.017132433
22	0xbd93c8f1	-0.07216061
23	0x3ceb1e4c	0.02870097
24	0x3ab62ac0	0.0013898239
25	0xbdd7836b	-0.10523113
26	0xbda0c4f8	-0.07850069
27	0xbea6f453	-0.3260828
28	0xbcaa6185	-0.020798454
29	0x3c08f239	0.008358532
30	0x3e37de5f	0.17955922
31	0x3db966e3	0.09052827
32	0xbd6a6e06	-0.057233833
33	0xbd5f336c	-0.0544924
34	0xbd8174a1	-0.06321073
35	0xbe7cfd19	-0.24705924
36	0xbd343a4e	-0.044000916
37	0x3e38c448	0.18043625
38	0xbde9082f	-0.11378514
39	0x3c731e0c	0.014838707
40	0xbc65af38	-0.014018826
41	0xbc95a0fa	-0.018265236
42	0xbd4676eb	-0.048453253
43	0x3c2c9248	0.010532923
44	0xbcc597fa	-0.02412032
45	0xbca9f278	-0.0207455
46	0xbc2318e2	-0.009954663
47	0xbebb5484	-0.36587918
48	0xbcdd1570	-0.026987761
49	0x3d3a84d5	0.045536835
50	0xbccca2cb	-0.02497997
51	0xbebe0e10	-0.37120104
52	0xbc68da55	-0.014212211
53	0xbcc380aa	-0.023865063
54	0xbc069a96	-0.008215567
55	0xbce4e673	-0.027941918
56	0xbde56ecc	-0.112027735
57	0x3ba2b398	0.004965257
58	0x3c799823	0.015234026
59	0x3b8c2373	0.004276687
60	0xbb09948c	-0.0020993082
61	0xbd1dcf8d	-0.038528014
62	0xbc397e1a	-0.011321569
63	0x3df44703	0.11927607
64	0xbe6bf91e	-0.2304425
65	0x3caf6655	0.0214111
66	0x3d4630b6	0.048386298
67	0xbee93fb9	-0.4555643
68	0xbd94ebe0	-0.07271552
69	0x3dde9484	0.10868171
70	0x3e40b3eb	0.18818633
71	0xbcabd2a5	-0.020974467
72	0xbdb9dbaa	-0.09075101
73	0xbdd3b939	-0.10338063
74	0x3e20f1ca	0.15717235
75	0xbd0a8cc6	-0.03382566
76	0x3c1e440b	0.009659777
77	0xbde8013e	-0.11328362
78	0xbe81ec6a	-0.25375682
79	0x3c7f026c	0.015564542
80	0x3c7d6a2c	0.015467208
81	0xbc52a1ec	-0.012855988
82	0xbdca7078	-0.09884733
83	0x3dd6c7cc	0.10487327
84	0x3bedcbdd	0.0072569684
85	0xbc30442a	-0.010758439
86	0x3dc1111f	0.09427094
87	0xbec479a7	-0.38374063
88	0xbdabd24f	-0.083897226
89	0xbc5a9c45	-0.013342922
90	0x3e1a9b7b	0.15098374
91	0x3c880ab8	0.016606674
92	0x3d20c7ee	0.039253168
93	0x3bc1dba2	0.005916075
94	0xbcd16a58	-0.025563404
95	0x3e0c1542	0.13679984
96	0x3d363fd9	0.044494484
97	0xbd2e23e2	-0.04251469
98	0xbb9293c1	-0.00447318
99	0xbb94a073	-0.0045357286
100	0x3d33f1d0	0.043931782
101	0x3c65b4d2	0.014020162
102	0xbd39a962	-0.04532755
103	0x3c5cda48	0.013479777
104	0xbcaacabf	-0.02084863
105	0x3cb44fbb	0.022010675
106	0x3c4402d2	0.011963563
107	0xbe70ee76	-0.23528466
108	0xbe8449ef	-0.25837657
109	0xbc5d6e0c	-0.013515007
110	0x3e7bf11c	0.24603695
111	0x3e0acfe9	0.13555874
112	0xbbdfc5e0	-0.0068290085
113	0xbd10f166	-0.035386465
114	0xbbacce77	-0.005273636
115	0xbbb1a720	-0.005421534
116	0x3c702637	0.014657549
117	0x3b98a5a2	0.004658417
118	0x3db1cf21	0.08682085
119	0xbc41fb92	-0.011839764
120	0x3c8efd4c	0.017454766
121	0xbd06ee4c	-0.0329421
122	0xbd04a284	-0.03238155
123	0xbd54faf4	-0.05199714
124	0xbc76af85	-0.015056496
125	0xbeed989d	-0.46405497
126	0x3c8a5a2c	0.0168887
127	0x3dbcee59	0.09225149
